wheel_legged_gym/scripts/model/policy(1).pt (torch, 178514 bytes, 14 tensors)

weight f4 [128, 30]
0	0x3dc985a9	0.09839947
1	0x3e35fbbd	0.17771812
2	0x3e2fb92b	0.1716048
3	0x3ddfe3d2	0.10932125
4	0xbd67a58b	-0.05655436
5	0xbcba82db	-0.022767475
6	0xbe2681b0	-0.1626041
7	0x3dfecb7b	0.124411546
8	0x3e1b1b52	0.1514714
9	0x3dfcaa4f	0.12337171
10	0xbe0df41c	-0.13862652
11	0x3e38cecd	0.18047638
12	0xbd1824c4	-0.037144437
13	0x3d847cf1	0.06469143
14	0x3e187af0	0.14890647
15	0x3e342d06	0.175953
16	0xbd6f3c63	-0.0584072
17	0xbc515718	-0.012777112
18	0xbdf2c156	-0.11853282
19	0x3d01dbf8	0.03170392
20	0xbc345baf	-0.011008187
21	0xbd9514f3	-0.07279386
22	0x3e26bad6	0.1628221
23	0x3e2eba5b	0.17063276
24	0x3dc363e9	0.09540541
25	0xbda7015e	-0.08154558
26	0xbe231f56	-0.15929922
27	0xbd1818a6	-0.03713288
28	0xbc4010c9	-0.011722752
29	0x3dfa0bb1	0.12209261
30	0xbd387cd1	-0.04504091
31	0xbdb74463	-0.089485906
32	0x3d967be3	0.07347848
33	0x3d3a0e41	0.04542375
34	0x3dd4766b	0.10374149
35	0x3e05558e	0.13020918
36	0x3dfd96eb	0.12382301
37	0x3ceee08b	0.029159805
38	0xbd6b1466	-0.0573925
39	0x3dad1eca	0.08453138
40	0xbc082f7e	-0.008312104
41	0x3e1bfc7d	0.15233035
42	0xbdf4ac3c	-0.119469136
43	0x3d8a981c	0.06767294
44	0xbe359053	-0.17730837
45	0xbd87ee3f	-0.06637239
46	0x3d478b87	0.048717048
47	0xbe208954	-0.15677387
48	0xbdd3fc42	-0.10350849
49	0xbd20744e	-0.039173417
50	0x3e288bbf	0.16459559
51	0xbd7131da	-0.058885433
52	0xbb82709b	-0.003980709
53	0x3e03abfb	0.12858574
54	0x3e16a546	0.14711484
55	0x3dd447cb	0.10365256
56	0xbdf8925b	-0.1213729
57	0x3e242f54	0.16033679
58	0xbcb2456c	-0.021761619
59	0x3c037976	0.008024564
60	0x3ce77560	0.028254211
61	0xbdcdf577	-0.10056584
62	0x3e2bca60	0.16776419
63	0x3dc25275	0.09488384
64	0xbd563390	-0.052295268
65	0x3c9037ee	0.017604794
66	0x3e0d7122	0.13812688
67	0x3e00d1c1	0.12580015
68	0x3e32f695	0.17476876
69	0xbda70186	-0.081545874
70	0xbaaf0bf6	-0.0013355005
71	0x3dbbb23c	0.09164855
72	0x3e3059a5	0.17221697
73	0xbe15b393	-0.14619283
74	0xbdd23fa6	-0.10266046
75	0x3df98ce3	0.12185075
76	0x3d0f38d7	0.034966316
77	0xbe39bcfb	-0.18138497
78	0xbd9e9160	-0.07742572
79	0xb7d45819	-2.5313393e-05
80	0x3e0a48ad	0.13504286
81	0x3bbcce55	0.0057619014
82	0x3d4792f3	0.048724126
83	0xbde308c7	-0.110856585
84	0x3c8cee92	0.017203603
85	0xbdce9a31	-0.100880034
86	0x3ceb3c98	0.028715417
87	0x3e276f28	0.16350996
88	0x3d8c4123	0.06848361
89	0xb9cc3c1a	-0.0003895469
90	0x3cae0127	0.021240784
91	0xbc96777e	-0.018367525
92	0xbe0b703d	-0.13617034
93	0x3dfe5d01	0.12420083
94	0xbb30ed3d	-0.0026996874
95	0x3dfbe929	0.12300331
96	0xbdf29d35	-0.11846391
97	0x3ca7df97	0.020492358
98	0xbe16bd03	-0.1472054
99	0xbcdc7e9d	-0.026915843
100	0xbddee760	-0.10883975
101	0xbe2fe99c	-0.17178959
102	0x3c1f819d	0.009735492
103	0x3da371b8	0.079806745
104	0xbd455364	-0.04817523
105	0x3cdf7f5b	0.027282408
106	0x3cc744cc	0.024324797
107	0x3da2e5c5	0.07953981
108	0xbca63245	-0.020287642
109	0x3df541bf	0.11975431
110	0x3d167081	0.036728386
111	0x3c60e41d	0.013726261
112	0xbe141bbd	-0.14463706
113	0xbdaa4866	-0.0831459
114	0xbd646270	-0.05575794
115	0xbe339c77	-0.17540155
116	0x3dab58f7	0.08366578
117	0xbd987b09	-0.07445342
118	0xbe301841	-0.17196752
119	0x3de730cf	0.112886064
120	0xbd6f43b8	-0.05841419
121	0x3d90ad55	0.070643105
122	0x3d8f6bda	0.07002993
123	0xbc417e0c	-0.011809837
124	0xbdc36b50	-0.095419526
125	0x3bd2da05	0.0064346814
126	0xbc08c020	-0.008346587
127	0xbe08fd03	-0.13377766
128	0xbdf24a37	-0.118305616
129	0xbd9774dd	-0.07395337
130	0x3e14f4ff	0.14546584
131	0xbdabca0f	-0.08388149
132	0xbdc811c3	-0.09769013
133	0x3d82f27e	0.06393908
134	0x3e00a17e	0.12561604
135	0xbe1b668d	-0.15175839
136	0xbe0b85c8	-0.13625252
137	0xbd8cc162	-0.06872822
138	0xbde0b3f4	-0.10971823
139	0xbba4afd5	-0.0050258436
140	0xbdeae3d7	-0.11469238
141	0x3da5f221	0.08102823
142	0xbc93c8ee	-0.018040147
143	0x3ce2bc3e	0.027677651
144	0xbced5813	-0.028972661
145	0x3bda884f	0.0066690813
146	0x3ce39e9a	0.027785588
147	0xbd1aafc8	-0.037765294
148	0xbdf367ed	-0.11885057
149	0x3e023fec	0.12719697
150	0x3e2c541b	0.16828959
151	0xbe2da1ba	-0.16956225
152	0xbd2e7155	-0.04258855
153	0xbdd39909	-0.103319235
154	0xbe290d82	-0.16509059
155	0xbdf5ccf7	-0.120019846
156	0x3e0b8685	0.13625534
157	0x3e2ebb56	0.1706365
158	0x3c0958a0	0.008382946
159	0x3da3e73f	0.08003091
160	0x3db2d9c2	0.0873294
161	0x3db785fc	0.08961102
162	0x3e0f9832	0.14022902
163	0x3bf7b60a	0.0075595425
164	0xbe2d6fe0	-0.16937208
165	0x3e2afd6e	0.16698238
166	0x3b1d5792	0.0024008495
167	0x3cd89ce6	0.026442003
168	0x3dc46495	0.09589497
169	0xbd8687ec	-0.06568894
170	0xbdd518e0	-0.10405135
171	0xbe01b168	-0.12665331
172	0xbcd5aa49	-0.026082175
173	0x3da49d98	0.08037871
174	0xbc97223a	-0.018448938
175	0x3dbae9e1	0.0912664
176	0x3c34eb27	0.011042393
177	0x3d0073f4	0.03136058
178	0xbde7f507	-0.11326032
179	0x3c4cb17b	0.0124934865
180	0xbd9492b6	-0.072545454
181	0x3d8175d9	0.06321306
182	0x3e3830df	0.17987393
183	0xbe10a8b6	-0.14126858
184	0xbe3225d8	-0.17397249
185	0xbe15194a	-0.14560428
186	0xbd6f96a5	-0.058493275
187	0xbdfc7a93	-0.12328067
188	0x3cd1d470	0.025613993
189	0x3c3be6cf	0.011468603
190	0xbcb117e2	-0.021617834
191	0xbdb081cf	-0.08618509
192	0x3e273e02	0.16332248
193	0x3d2b3964	0.04180278
194	0x3d287c89	0.04113439
195	0x3dabf13e	0.08395623
196	0x3e29e941	0.16592886
197	0xbdafa977	-0.08577245
198	0x3e1e30f6	0.15448365
199	0x3df526d3	0.11970296
200	0xbd3b6421	-0.045749787
201	0xbacf9dfc	-0.001583993
202	0xbe0c5c51	-0.13707091
203	0x3de14a63	0.11000516
204	0x3e33f8a1	0.17575313
205	0x3d82f628	0.06394607
206	0xbe393650	-0.18087125
207	0xbdd505a3	-0.10401466
208	0x3df3bdbd	0.11901424
209	0xbda2da62	-0.079518095
210	0xbc9eabf4	-0.019369103
211	0x3ce2fe70	0.027709216
212	0x3e3a9a68	0.18222964
213	0xbe2a44e4	-0.16627842
214	0xbde040fc	-0.10949895
215	0xbe0fa839	-0.14029016
216	0xbda361b5	-0.079776205
217	0xbd8900e3	-0.06689622
218	0xbcf4efdc	-0.02989953
219	0xbdc7d787	-0.097579055
220	0xbdd04e25	-0.10171155
221	0x3da0d885	0.07853798
222	0x3daaf095	0.08346669
223	0x3e28bc4a	0.16478077
224	0x3dbfde57	0.0936858
225	0xbd213308	-0.039355308
226	0x3d0b36f9	0.033987973
227	0xbdef0d36	-0.11672442
228	0xbe29fe5c	-0.16600937
229	0xbd019827	-0.031639244
230	0x3d0cf8b0	0.034416854
231	0x3de29072	0.11062707
232	0x3e0f3ee4	0.13988835
233	0xbcfcc9d1	-0.030857952
234	0xbe3e250b	-0.18568818
235	0x3bc6b542	0.006064088
236	0xbe30df10	-0.17272592
237	0xbdf76fb3	-0.12081852
238	0x3df072b3	0.11740627
239	0xbe2084a3	-0.15675597
240	0x3e0f861f	0.14016007
241	0x3d88ff81	0.066893585
242	0x3d95173e	0.07279824
243	0x3df0a264	0.117497236
244	0x3cea1430	0.02857408
245	0x3d9948c4	0.07484582
246	0xbd39dcda	-0.045376636
247	0x3e0e202f	0.13879465
248	0x3e3693ac	0.1782977
249	0xbe11985a	-0.14218274
250	0x3e011624	0.12606102
251	0xbe2b581f	-0.16732834
252	0xbdbbcb12	-0.09169592
253	0xbdac4ca2	-0.08413054
254	0xbe1d810a	-0.15381256
255	0x3d5f7475	0.05455442

bias f4 [128]
0	0x3e040814	0.12893707
1	0x3d446e02	0.047956474
2	0x3d9def4d	0.077116586
3	0xbdd8f7e5	-0.10594157
4	0xbdd3e1a0	-0.10345769
5	0x3e38b84a	0.1803905
6	0x3e2d6941	0.16934682
7	0x3daca7a7	0.08430415
8	0xbd617f14	-0.05505283
9	0xbde1ca5f	-0.11024927
10	0x3d50fa9c	0.05102025
11	0x3dd70b12	0.10500158
12	0xbd6ad8e6	-0.057335757
13	0x3e04d65e	0.129724
14	0x3d5e33c5	0.05424859
15	0x3e081551	0.13289382
16	0x3da05a00	0.07829666
17	0xbdc66c64	-0.096886426
18	0x3e2caec4	0.16863543
19	0x3e0207df	0.12698315
20	0xbd6e76e1	-0.05821884
21	0x3d3d8695	0.046270926
22	0x3e137204	0.14398962
23	0xbcfa2aaf	-0.030537931
24	0x3dc09dc2	0.0940509
25	0x3bc9f310	0.0061630085
26	0x3e25c864	0.16189724
27	0xbdb11be3	-0.08647897
28	0x3e3760ca	0.17908016
29	0x3d8a13d7	0.067420654
30	0xbdc267ae	-0.094924316
31	0x3e34814d	0.1762745
32	0x3e2d6bc0	0.16935635
33	0x3d3fcdf9	0.04682729
34	0x3dc5282b	0.09626802
35	0x3c64be2b	0.013961355
36	0x3d98823d	0.07446716
37	0xbd94fbd7	-0.07274597
38	0x3da1ccd7	0.07900398
39	0x3e35ef58	0.17767084
40	0x3d8bc694	0.06824985
41	0x3d0c7e8d	0.034300376
42	0x3e003f25	0.12524088
43	0x3dab6914	0.083696514
44	0x3d59e619	0.053197954
45	0x3cf8c2b5	0.030366281
46	0xbd98375d	-0.07432435
47	0xbdfca5d2	-0.12336315
48	0xbd64b803	-0.05583955
49	0xbe2b9c81	-0.1675892
50	0x3cd16015	0.02555851
51	0xbe28ceaf	-0.16485094
52	0x3bfd23a8	0.007725198
53	0xbd3475c8	-0.044057637
54	0x3de517af	0.11186158
55	0x3c1ebce1	0.009688587
56	0xbda9dafa	-0.082937196
57	0xbda2e46b	-0.079537235
58	0xbd5fc650	-0.054632485
59	0x3ded6d27	0.11593085
60	0xbdbe0158	-0.092776
61	0x3d7cc13d	0.061707724
62	0xbd64e302	-0.055880554
63	0xbd2b3c37	-0.041805472
64	0x3e178788	0.14797795
65	0xbdc67659	-0.09690542
66	0xbe09aa0d	-0.13443775
67	0xbd8f0aac	-0.069844574
68	0xbdc4d61b	-0.0961115
69	0xbbccad33	-0.006246233
70	0xbd07088e	-0.032967143
71	0x3dce7237	0.100803785
72	0xbd68623e	-0.056734316
73	0x3d8c8dbb	0.068629704
74	0xbddc044c	-0.10743007
75	0xbe1e496d	-0.15457697
76	0x3cf75675	0.030192593
77	0xbe11b337	-0.14228521
78	0xbcdc9be7	-0.026929809
79	0xbd366259	-0.044527385
80	0xbd268cfb	-0.040661793
81	0x3e0ec578	0.13942516
82	0x3ddb69eb	0.107135616
83	0x3df86be8	0.121299565
84	0x3c73c06e	0.014877422
85	0x3d92f091	0.07174791
86	0xbdca838c	-0.09888372
87	0xbdc8325b	-0.097752295
88	0x3db03396	0.08603589
89	0xbe37ed07	-0.17961513
90	0x3d80d27d	0.062901475
91	0xbd641f3c	-0.05569385
92	0xbb622698	-0.0034507867
93	0xbd999471	-0.07499016
94	0x3d5221f5	0.051301915
95	0x3e298c34	0.1655739
96	0x3daa71e6	0.08322506
97	0xbd35cb87	-0.044383552
98	0xbe172f13	-0.14764051
99	0x3c64f521	0.013974459
100	0x3d215d42	0.03939558
101	0x3d69288d	0.056923438
102	0xbc4ef912	-0.012632625
103	0x3e31f623	0.1737905
104	0xbe1e5f25	-0.15465982
105	0xbd89afb4	-0.06722966
106	0xbde0df29	-0.109800644
107	0x3e0fa24d	0.14026757
108	0x3d5e0d76	0.054212056
109	0x3d9364da	0.0719697
110	0x3df393cb	0.11893424
111	0x3d93d44c	0.07218227
112	0x3cd46549	0.025927203
113	0xbe38a381	-0.18031122
114	0xbd4c401a	-0.04986582
115	0x3c5a6c89	0.013331541
116	0xbd7a8a19	-0.061166856
117	0xbe355316	-0.17707476
118	0xbe2de890	-0.16983247
119	0xbd08acf8	-0.03336808
120	0xbe0facc3	-0.14030747
121	0x3e22e89b	0.15909044
122	0xbe0051e2	-0.12531236
123	0x3e3a93be	0.18220422
124	0xbd5e661a	-0.05429659
125	0x3df8a144	0.12140134
126	0x3d953d4d	0.07287083
127	0x3df95e86	0.12176232

weight f4 [64, 128]
0	0xbc86781b	-0.016414693
1	0xbc960a74	-0.018315531
2	0x3d47d1f5	0.048784215
3	0x3d0e1a97	0.034693327
4	0x3da9c409	0.08289344
5	0x3d8bc534	0.06824723
6	0xbda5cd41	-0.0809579
7	0x3d8e7c81	0.06957341
8	0x3d28be89	0.041197333
9	0xbd0c1b68	-0.034205824
10	0x3d8318fa	0.06401248
11	0x3cf8db74	0.03037808
12	0xbce0c7b1	-0.02743897
13	0x3da29696	0.07938878
14	0x3c568f80	0.0130957365
15	0x3d23319b	0.03984223
16	0x3d93884c	0.07203731
17	0xbd4337cf	-0.047660645
18	0x3cecca14	0.028904952
19	0x3cffe056	0.031234901
20	0x3d7a461a	0.06110201
21	0x3d5355c7	0.051595476
22	0xbcea851f	-0.02862793
23	0xbcb4cdf6	-0.022070866
24	0x3d33627e	0.0437951
25	0x3cc01bde	0.023450788
26	0xbbe1d964	-0.00689237
27	0xbd9f0d19	-0.0776617
28	0x3da6f3ca	0.08151968
29	0xbd8e36d1	-0.06944049
30	0xbd21801d	-0.03942882
31	0xbb0733c1	-0.0020630213
32	0xbd8e9ef8	-0.06963915
33	0x3cd104d5	0.025515
34	0x3d9fafe4	0.0779722
35	0xbab89374	-0.001408203
36	0xbd9a07d2	-0.07521023
37	0xbc919952	-0.017773304
38	0x3caedd42	0.021345738
39	0x3d0a0864	0.03369941
40	0x3c023a26	0.007948434
41	0x3bf87203	0.0075819506
42	0xbda8075c	-0.08204529
43	0x3da91d0b	0.08257493
44	0x3cd66697	0.026171966
45	0xbd8abfb6	-0.06774847
46	0xbd30a38d	-0.043124724
47	0xbd4122a2	-0.04715217
48	0xbc8c461e	-0.017123278
49	0x3d6a13f8	0.05714795
50	0xbccbe72b	-0.024890503
51	0xbcf5bd61	-0.02999753
52	0x3d21bc61	0.039486293
53	0xbc27fec2	-0.01025361
54	0xbda0b7c9	-0.07847554
55	0xbd14050c	-0.036137626
56	0x3da716f5	0.081586756
57	0xbcb2bb1c	-0.021817736
58	0xbd9f9c04	-0.077934295
59	0xbda0347f	-0.07822513
60	0xbd85ab05	-0.0652676
61	0xbd195f28	-0.037444264
62	0xbb38e191	-0.002821062
63	0xbc3e9f98	-0.01163473
64	0x3da8eeca	0.082486704
65	0xbd9e830f	-0.07739841
66	0x3995f8d9	0.000286049
67	0xbdb47ab5	-0.08812467
68	0xbd72e43d	-0.059299696
69	0x3d740f8f	0.05958515
70	0x3cf3b57e	0.029749628
71	0x3d7f1e97	0.062285032
72	0xbdb2548b	-0.087075315
73	0x3c1438d8	0.009046756
74	0x3cb9cf0b	0.022681734
75	0x3d49ecbf	0.049298044
76	0xbd2cb3d3	-0.04216368
77	0xbd02789d	-0.031853307
78	0x3d982583	0.0742903
79	0x3d47e72b	0.048804443
80	0x3ccea836	0.025226694
81	0xb9d260cc	-0.0004012644
82	0x3d744276	0.059633695
83	0xbc67b0cb	-0.014141272
84	0x3d426ac7	0.047465112
85	0xbcb46b87	-0.02202393
86	0x3d437fc8	0.047729284
87	0xbcae8cc8	-0.021307364
88	0xbc4f4c96	-0.012652537
89	0x3a1aed33	0.0005909979
90	0x3d9a03e7	0.075202756
91	0xbb515871	-0.0031943584
92	0xbcfdc131	-0.03097591
93	0xbd709ad0	-0.05874139
94	0x3bcfcd28	0.006341595
95	0x3d749084	0.059708133
96	0x3cb19b34	0.021680452
97	0xbb75f86f	-0.0037532111
98	0xbd8da194	-0.06915584
99	0x3ca02661	0.01954955
100	0xbd0c53a8	-0.03425947
101	0x3d26f5d2	0.040761776
102	0xbc5c0525	-0.013428961
103	0xbd84a791	-0.06477273
104	0x3d435cdd	0.047695983
105	0x3d518ee7	0.051161673
106	0xbcf1971d	-0.029491002
107	0x3d3c3c43	0.045955908
108	0xbd82efd3	-0.06393399
109	0xbd0f34de	-0.034962527
110	0x3d4f4e23	0.050611626
111	0x3da0f13f	0.07858514
112	0xbd63638c	-0.055514857
113	0xbd31292f	-0.043252166
114	0x3d076a09	0.033060107
115	0xbdb7ed0a	-0.089807585
116	0xbcccfa80	-0.025021791
117	0x3d8abc20	0.06774163
118	0x3d93c242	0.07214786
119	0xbd82ec05	-0.063926734
120	0x3c123d10	0.008925691
121	0x3c3a4321	0.011368544
122	0xbd60e838	-0.05490896
123	0xbd96f58c	-0.07371053
124	0x3d6c025e	0.057619445
125	0x3d8e644b	0.06952723
126	0x3d105867	0.035240557
127	0xbd84fb74	-0.064932734
128	0x3b40fd8c	0.0029448
129	0x3d200b8d	0.039073516
130	0xbcbdac6e	-0.02315351
131	0xbd7a7844	-0.06114985
132	0x3d48ab2c	0.048991367
133	0x3d2b9a97	0.041895475
134	0x3c071e0e	0.008246912
135	0x3d47e9fa	0.04880712
136	0x3da1938a	0.07889469
137	0x3cd7691e	0.026295241
138	0x3da41607	0.08012014
139	0x3d52e5a9	0.051488552
140	0x3d916605	0.07099537
141	0x3d0777c1	0.03307319
142	0xbd92e1cf	-0.07171976
143	0xbdabd7bb	-0.08390757
144	0x3d9a615a	0.075380996
145	0xbad4f81a	-0.0016248256
146	0x3d60b9fd	0.054864872
147	0x3c1cb5aa	0.009564796
148	0xbd13d979	-0.03609607
149	0xbd7dca1c	-0.061960325
150	0xbd39fee7	-0.04540911
151	0x3db21942	0.08696224
152	0xbd9308dc	-0.07179424
153	0x3c151f16	0.00910165
154	0x3b87f1e7	0.00414871
155	0xbd50cd5a	-0.05097709
156	0xbd6ee0c5	-0.058319826
157	0x3d9e3481	0.07724858
158	0xbd1c7be0	-0.038204074
159	0x3d6fbfbc	0.05853246
160	0x3da29343	0.07938244
161	0x3dabef88	0.08395296
162	0xbc9ea189	-0.019364135
163	0x3c45a17e	0.0120624285
164	0xbda9fa9d	-0.08299754
165	0x3d2fb3b2	0.04289598
166	0xbd8df707	-0.06931882
167	0xbcced86f	-0.025249688
168	0x3cbc127e	0.022958037
169	0xbdb4122b	-0.08792528
170	0xbcd650ba	-0.02616154
171	0xbd9695a0	-0.073527575
172	0x3d875126	0.06607275
173	0xbda97660	-0.08274531
174	0x3bbef629	0.0058276844
175	0x3d75c7ea	0.060005106
176	0x3cefb944	0.029263146
177	0xbc2fd110	-0.010730997
178	0x3c8e2792	0.017352853
179	0x3d7966bf	0.060889002
180	0x3cda8630	0.026675314
181	0x3bf1c913	0.0073787062
182	0xba56ddf4	-0.0008196526
183	0x3a55c2f6	0.00081543566
184	0x3da1411a	0.07873745
185	0xbc5d3aac	-0.013502758
186	0x3bb4162b	0.0054958067
187	0xbd55d908	-0.05220893
188	0x3cd198ff	0.02558565
189	0xbc2802aa	-0.010254541
190	0xbd8a47e0	-0.0675199
191	0xbbde1074	-0.0067768637
192	0x3d280ae5	0.041026015
193	0x3d4a05a3	0.04932178
194	0x3d831f9b	0.06402513
195	0x3c8d9e01	0.017287256
196	0x3d36756a	0.04454557
197	0xbd431bfc	-0.04763411
198	0xbd8b16a5	-0.067914285
199	0xbd4029e6	-0.046914957
200	0xbd1b3384	-0.037890926
201	0xbcba92b2	-0.022775028
202	0xbda9c592	-0.08289637
203	0xbd5572d1	-0.05211145
204	0x3d13aa61	0.036051158
205	0xbd009cc2	-0.031399496
206	0x3d296c04	0.041362777
207	0xb9e8679a	-0.00044327677
208	0xbd76847f	-0.060184952
209	0x3d34a6b4	0.044104293
210	0xbd5fc0e3	-0.05462731
211	0x3bfe8b05	0.0077680373
212	0xbccfaeb8	-0.025351867
213	0x3d9d1b72	0.076712504
214	0x3c6d8034	0.014495898
215	0x3d9fe96c	0.078081936
216	0x3dae10a3	0.08499267
217	0xb9a18ca0	-0.00030813087
218	0x3d67c1e9	0.05658141
219	0x3d94430c	0.07239351
220	0xbd8b16f8	-0.0679149
221	0x3d798421	0.060917024
222	0xbc003e5c	-0.007827368
223	0xbd317d14	-0.043332174
224	0xbcb26ff6	-0.021781903
225	0xbd1603f7	-0.036624875
226	0x3daa64fd	0.08320043
227	0x3db380da	0.08764811
228	0xbd823b65	-0.06358985
229	0xbd308b1e	-0.043101422
230	0x39b9bc2b	0.00035426146
231	0xbd41e21a	-0.047334768
232	0xbd8e9b5f	-0.069632284
233	0xbda24252	-0.07922806
234	0x3c852f2e	0.016257849
235	0x3dadb181	0.08481122
236	0xbc7eceb3	-0.015552211
237	0xbd453057	-0.048141804
238	0xbda3164d	-0.07963238
239	0xbd1b91cc	-0.03798084
240	0xbcf22dcc	-0.029562853
241	0x3d5bafa4	0.0536343
242	0xbc96cf18	-0.018409297
243	0x3d72bb39	0.05926058
244	0x3d4b5983	0.049645912
245	0x3d7d7e98	0.061888307
246	0xbc5a56cc	-0.013326358
247	0xbd7f7021	-0.062362794
248	0xbd5ba85e	-0.053627364
249	0x3d7a510b	0.061112445
250	0x3d7e5ef4	0.062102273
251	0x3d84a998	0.0647766
252	0x3d97d75f	0.07414126
253	0x3cfeda42	0.031109933
254	0x3d92479b	0.07142564
255	0x3c34246d	0.010995013

bias f4 [64]
0	0xbb94632c	-0.004528424
1	0xbd8cd0c3	-0.06875756
2	0x3d09d612	0.03365142
3	0xbd07ec9d	-0.033184636
4	0x3bd67ed6	0.0065458817
5	0xbd9f7caf	-0.077874534
6	0x3daa2c12	0.08309187
7	0x3d8be588	0.06830889
8	0xbd824610	-0.063610196
9	0xbd7ffe38	-0.0624983
10	0x3d6d7386	0.0579715
11	0xbc8709b1	-0.016484113
12	0xbd1181d7	-0.035524216
13	0xbd626478	-0.055271596
14	0x3cc7ff0d	0.02441361
15	0xbc08a9e9	-0.008341291
16	0xbc9117f6	-0.01771162
17	0xbda119d7	-0.07866257
18	0xbcdc8188	-0.026917234
19	0x3d8907a2	0.06690909
20	0x3d7550e6	0.059891604
21	0xbcb440ab	-0.022003492
22	0xbd6554a4	-0.055988923
23	0xbbdb83f3	-0.006699079
24	0x3db8d25a	0.090244964
25	0xbd62b3a3	-0.055347096
26	0xbd182862	-0.037147887
27	0x3d855831	0.06510962
28	0x3cdfbfba	0.027313102
29	0x3c0ff3b5	0.008786132
30	0xbd8a4ed9	-0.0675332
31	0xbda004ac	-0.07813391
32	0x3bae41b6	0.005317892
33	0xbcc1c245	-0.023652205
34	0xbb4365f0	-0.0029815398
35	0xbc341ee0	-0.010993689
36	0xba548859	-0.00081074756
37	0xbd51829e	-0.051149957
38	0x3d765333	0.06013794
39	0xbd9d4d86	-0.07680802
40	0xbb7361c8	-0.003713714
41	0x3d4e9478	0.05043456
42	0x3da62bb7	0.08113807
43	0xbd916fba	-0.07101388
44	0xbd196b43	-0.03745581
45	0x3d7cfcb1	0.061764423
46	0x3ba811f9	0.0051290956
47	0xbd2837bb	-0.041068774
48	0x3db1dcb7	0.08684676
49	0xbb980aa9	-0.0046399427
50	0x3c867913	0.016415155
51	0x3d4eeb98	0.05051765
52	0xbd613afc	-0.054987893
53	0x3b363376	0.002780167
54	0x3c478932	0.012178706
55	0x3d14e735	0.03635331
56	0xbcd92cf4	-0.026510693
57	0x3d023c51	0.031795803
58	0xbca75ab4	-0.020428993
59	0xbd541dcb	-0.051786225
60	0xbca0c314	-0.01962427
61	0x3c7bff37	0.015380672
62	0xbc215b88	-0.009848483
63	0xbd25a7e4	-0.040443316

weight f4 [32, 64]
0	0xbd731380	-0.05934477
1	0xbd95a2fe	-0.07306479
2	0xbd84e04b	-0.06488093
3	0xbcdb9dcb	-0.02680864
4	0xbd183775	-0.037162263
5	0xbcac4c65	-0.021032522
6	0x3d506c36	0.050884448
7	0xbd9732ec	-0.073827595
8	0xbdc1c0b9	-0.09460587
9	0xbce07738	-0.027400598
10	0xbd29a5f9	-0.04141805
11	0xbdf96c14	-0.121788174
12	0xbcbc1e11	-0.022963556
13	0xbda5eafb	-0.081014596
14	0xbc62fb50	-0.013853863
15	0xbd68abd8	-0.056804508
16	0xbdc0824b	-0.093998514
17	0x3d83893a	0.06422658
18	0x3cc4c3dd	0.024019176
19	0xbdf026db	-0.11726161
20	0xbd248403	-0.04016496
21	0x3ce8803b	0.028381458
22	0x3dd06286	0.10175042
23	0xbd3518f9	-0.04421327
24	0xbd5a663d	-0.05332016
25	0x3bfec69d	0.0077751414
26	0x3d1fbd5b	0.038998943
27	0xbdb63d43	-0.088984035
28	0xbdaddd6f	-0.08489501
29	0xbdc6055d	-0.09668992
30	0xbdccf7f2	-0.10008229
31	0xbdec3009	-0.115325995
32	0xbd987bde	-0.07445501
33	0xbd3bc943	-0.045846235
34	0xbda9586c	-0.08268818
35	0x3d9dcdad	0.07705245
36	0xbd9ae770	-0.075636744
37	0x3dc9234e	0.09821187
38	0x3cd0492f	0.025425522
39	0x3dc8a845	0.0979772
40	0xbd2c6cc0	-0.0420959
41	0xbc9c0f80	-0.01905036
42	0x3db6b625	0.0892146
43	0xbc90f0b2	-0.017692897
44	0x3c30230b	0.010750542
45	0x3c715d54	0.014731724
46	0x3dd0c6a0	0.10194135
47	0xbdd13af5	-0.10216323
48	0xbdbf8901	-0.09352303
49	0xbddf1370	-0.10892379
50	0xbcc85ad9	-0.024457382
51	0x3c158f0e	0.009128345
52	0x3db5a2f9	0.08868975
53	0xbdced19c	-0.100985736
54	0x3d04ff34	0.032469943
55	0xbda6d6cd	-0.08146439
56	0x3d56d4aa	0.052448906
57	0x3cb3da61	0.021954717
58	0x3ca5f193	0.020256793
59	0x3c1b74fa	0.009488339
60	0x3d44dad4	0.048060253
61	0x3deb20af	0.11480843
62	0xbc66cc1f	-0.014086752
63	0x3de5fcfb	0.11229893
64	0x3d77b32d	0.06047361
65	0xbc5a16c5	-0.013311093
66	0x3de468d2	0.111528054
67	0xbdf6d806	-0.12052922
68	0x3b8899a3	0.0041687055
69	0xbd98f536	-0.07468645
70	0x3df195c5	0.117961444
71	0xbdbe6f32	-0.092985526
72	0x3bd3d4c7	0.006464574
73	0x3d39bca8	0.045345932
74	0xbd03b4d5	-0.032154877
75	0xbdc94502	-0.09827615
76	0x3d829f3b	0.06378027
77	0x3cc308e9	0.02380796
78	0xbd358ce3	-0.044323813
79	0xbdbef4a6	-0.09324007
80	0xbdef583a	-0.1168675
81	0xbd5202e8	-0.051272303
82	0xbbc86b8d	-0.0061163367
83	0x3de77ad1	0.11302722
84	0x3d00b58a	0.03142313
85	0x3dd1e4e1	0.10248733
86	0x3d0379e0	0.03209865
87	0x3d4b1372	0.04957909
88	0xbcd2e1b9	-0.025742399
89	0xbd053d8d	-0.032529403
90	0x3ad67040	0.0016360357
91	0x3df0786b	0.11741718
92	0xbdbdf2c6	-0.09274821
93	0x3dcb568c	0.09928617
94	0x3b94f71c	0.0045460593
95	0x3cb00e6a	0.021491248
96	0xbdafdc92	-0.08586992
97	0x3df2ad5e	0.118494734
98	0x3d9b661a	0.07587834
99	0x3db9d1d2	0.09073223
100	0xbda43652	-0.08018173
101	0x3cf3adcd	0.02974596
102	0xbdd7b355	-0.10532252
103	0xbbc61d55	-0.006045977
104	0x3db2e7f6	0.08735649
105	0xbd45706d	-0.04820292
106	0x3c6d370f	0.014478459
107	0xbca3ad49	-0.01998009
108	0xbc67e143	-0.014152828
109	0x3cd748d8	0.026279852
110	0xbc99e411	-0.018785508
111	0x3d6feaea	0.05857364
112	0x3c5ab077	0.013347737
113	0xbdcbee5c	-0.09957573
114	0xbbb96629	-0.0056579304
115	0xbd1eda58	-0.038782448
116	0x3d6c2871	0.057655755
117	0xbdb06018	-0.086120784
118	0x3dc7663f	0.09736299
119	0xbdddf048	-0.10836846
120	0xbd88b71a	-0.06675549
121	0xbd9ccc99	-0.076562114
122	0x3da95845	0.08268789
123	0x3d6302d2	0.05542261
124	0x3d91194e	0.070849046
125	0x3d92c345	0.07166151
126	0x3d75e08a	0.06002859
127	0xbd237529	-0.039906655
128	0x3d40e5b2	0.047094055
129	0x3d47bb4d	0.04876261
130	0xbd083a4a	-0.033258714
131	0x3d06ac2a	0.032879032
132	0xbc82304b	-0.015892169
133	0xbd505d09	-0.050869975
134	0xbd369465	-0.044575114
135	0xbd496e09	-0.049177203
136	0x3d8ee7ce	0.06977807
137	0x3d40ea95	0.047098715
138	0x3cd24b9d	0.02567082
139	0xbd324bea	-0.04352943
140	0x3d481f25	0.048857827
141	0xbd2c3ab3	-0.042048167
142	0x3d8c28be	0.068437085
143	0xbde24723	-0.110487245
144	0x3d15246b	0.036411684
145	0x3c340a6e	0.010988815
146	0xbd42e77d	-0.047584046
147	0x3dd2ef9a	0.102996066
148	0xbceb2dc1	-0.02870834
149	0x3c497020	0.012294799
150	0x3df714a8	0.12064487
151	0xbd0a4ca0	-0.03376448
152	0x3d26d22c	0.04072778
153	0x3de2b768	0.11070138
154	0x3c603ccc	0.01368637
155	0xbdab15a5	-0.08353738
156	0x3ddde75c	0.10835144
157	0x3dc8b6b5	0.098004736
158	0x3ddf6939	0.109087415
159	0xbd0f3d23	-0.034970414
160	0xbdcbbc2a	-0.09947999
161	0x3d30f656	0.043203674
162	0x3d9a7943	0.0754266
163	0x3dfc689b	0.123246394
164	0xbd46ce63	-0.04853667
165	0x3d703046	0.058639787
166	0x3d4ef9b5	0.050531108
167	0xbd036a25	-0.03208365
168	0xbd95c8ae	-0.07313667
169	0xbd61b12f	-0.055100616
170	0xbdbc98fc	-0.09208867
171	0xbc0204df	-0.007935732
172	0x3ddd174d	0.1079546
173	0xbdb7d7a2	-0.089766756
174	0x3d6f5eb5	0.05843993
175	0x3db5c464	0.08875349
176	0xbda3d23d	-0.07999084
177	0x3ddc0584	0.107432395
178	0xbdcc1885	-0.09965614
179	0x3cda392d	0.026638592
180	0xbd05b53b	-0.032643538
181	0xbd947b5c	-0.072500914
182	0xbd8ada7e	-0.06779955
183	0xbdeb120a	-0.1147805
184	0x3d67a699	0.056555364
185	0x3c50e402	0.012749674
186	0xbde562f3	-0.11200514
187	0xbc167c69	-0.009184935
188	0xbd19ac40	-0.037517786
189	0x3de62b7e	0.11238764
190	0xbc869328	-0.016427591
191	0xbdd41303	-0.10355189
192	0xbdbfdc0d	-0.09368143
193	0xbceb22b0	-0.028703064
194	0xbdb6c4af	-0.08924233
195	0xbd4bad61	-0.049725894
196	0xbde3554d	-0.11100254
197	0xbd250f1d	-0.040297616
198	0x3dc69ce2	0.09697892
199	0xbdf4604b	-0.11932429
200	0xbddd6f3b	-0.10812231
201	0xbca8545c	-0.020548038
202	0x3d705cbf	0.0586822
203	0x3db9b66d	0.09067998
204	0xbd0fc028	-0.035095364
205	0xbd76d19a	-0.060258485
206	0xbd9aa773	-0.0755147
207	0x3de3dd0e	0.11126147
208	0x3d903680	0.07041645
209	0xbdd6c592	-0.10486902
210	0x3d8393b4	0.064246565
211	0x3b6b142a	0.0035870173
212	0x3d0ffa1c	0.035150632
213	0xbbd0e079	-0.0063744155
214	0x3c8e9b12	0.017407928
215	0x3cdea003	0.027175909
216	0xbd75490f	-0.059884127
217	0xbd057b2d	-0.032588173
218	0x3d881413	0.06644454
219	0xbd9992c4	-0.074986964
220	0xbd210fe2	-0.039321788
221	0xbd8e15f1	-0.06937779
222	0x3b93f27f	0.004514992
223	0xbd9a9767	-0.07548409
224	0x3d57377b	0.052543145
225	0xbbe9390e	-0.007117397
226	0x3d83965c	0.06425163
227	0x3dcb0671	0.09913338
228	0xbd3f9ba9	-0.04677931
229	0xbd24f445	-0.040272016
230	0xbd96981e	-0.07353233
231	0x3d541bb7	0.051784243
232	0x3d058bd5	0.032604057
233	0xbd6ba994	-0.05753477
234	0xbcce5357	-0.025186224
235	0x3df8b851	0.121445306
236	0x3dae18b7	0.08500808
237	0xbb592af5	-0.0033137177
238	0x3d4b6450	0.049656212
239	0xbe025a12	-0.12729672
240	0xbbc2b2f2	-0.005941742
241	0xbd8cdb65	-0.06877784
242	0xbcd0a8a1	-0.025471034
243	0xbcc3d661	-0.023905935
244	0x3d2c7855	0.042106945
245	0x3d186e37	0.037214484
246	0xbce9f465	-0.02855892
247	0xbd756447	-0.059910085
248	0x3cc059b4	0.023480274
249	0x3ddcb466	0.10776596
250	0x3d85eefd	0.06539724
251	0xbde5548a	-0.11197765
252	0xbd79cfb6	-0.060989104
253	0xbd8e4c76	-0.069481775
254	0x3cdb1185	0.026741752
255	0x3da7503a	0.08169599

bias f4 [32]
0	0xbca59e67	-0.020217134
1	0xbdd95df1	-0.10613621
2	0x3cc61788	0.024181142
3	0xbc994873	-0.018711304
4	0x3d816b22	0.06319262
5	0x3dded12c	0.1087974
6	0x3d876838	0.06611675
7	0x3d9cccae	0.07656227
8	0x3d7369fe	0.059427254
9	0xbdf3c9a8	-0.11903697
10	0x3d254656	0.04035028
11	0x3cdf7c60	0.027280986
12	0xbcbb8ae8	-0.022893384
13	0x3d5edd45	0.054410238
14	0xbddddddc	-0.10833332
15	0xbdd39a0c	-0.103321165
16	0x3d3a80a4	0.045532838
17	0xbda58daa	-0.08083661
18	0xbc68c829	-0.014207878
19	0x3d6b4529	0.057439003
20	0xbd21afe5	-0.039474387
21	0xbcddb28c	-0.027062677
22	0xbd2adc52	-0.04171402
23	0x3a82c777	0.0009977658
24	0xbd8dac76	-0.0691766
25	0x3d6ef75f	0.05834138
26	0xbd73d3c8	-0.059528142
27	0x3d54383b	0.051811438
28	0x3dc1efc5	0.094695605
29	0x3d20d7f0	0.039268434
30	0xbd413d42	-0.04717756
31	0xbc0717a0	-0.008245379

weight f4 [6, 32]
0	0x3e1994fd	0.14998241
1	0x3e18b612	0.14913204
2	0x3e2dc357	0.16969047
3	0xbc45b12a	-0.012066165
4	0x3e154406	0.1457673
5	0x3db3b03c	0.087738484
6	0x3e066cfa	0.13127509
7	0xbe27ebf5	-0.16398604
8	0x3e18c08a	0.14917198
9	0xbd7370df	-0.059433814
10	0x3e32c7a4	0.1745897
11	0x3cc3a92b	0.023884377
12	0xbd0ec79a	-0.034858324
13	0x3dda44ce	0.10657655
14	0xbd936b93	-0.071982525
15	0x3e001b71	0.12510468
16	0x3d6702ba	0.056399085
17	0xbd55a9ac	-0.052163765
18	0xbdab7a16	-0.083728954
19	0x3d298def	0.041395124
20	0xbe10d83e	-0.1414499
21	0x3c4efc0d	0.012633336
22	0xbdb8cc0d	-0.090232946
23	0x3e022042	0.12707618
24	0x3cd27ce9	0.025694327
25	0x3d9ad9bb	0.0756106
26	0xbd500ad6	-0.050791584
27	0xbdb83805	-0.0899506
28	0x3e06a5ae	0.1314914
29	0x3dd1dc3e	0.10247086
30	0x3d0adc3b	0.033901434
31	0x3e17862f	0.1479728
32	0x3e065b13	0.1312068
33	0xbe0eff39	-0.13964547
34	0x3e359fe0	0.17736769
35	0xbe01e129	-0.12683548
36	0xbc5a4074	-0.013321031
37	0xbe22f143	-0.15912347
38	0x3e210951	0.1572621
39	0x3d0148b9	0.031563494
40	0x3cd7cd55	0.026343027
41	0xbe305cfe	-0.17222974
42	0x3ab1b248	0.001355716
43	0x3e111ac2	0.14170364
44	0x3dedc009	0.116088934
45	0xbd15731f	-0.03648674
46	0xbdf6a778	-0.12043661
47	0x3d2d0a6e	0.042246275
48	0x3de5285b	0.11189338
49	0xbd0a8d16	-0.033825956
50	0xbcfb2fc7	-0.03066243
51	0x3d8d0673	0.06885996
52	0xbe22923a	-0.15876094
53	0xbe33a4fa	-0.17543402
54	0x3e2ca3fb	0.16859429
55	0x3b160cf1	0.0022895897
56	0xbd5e38b9	-0.054253314
57	0xbe008a26	-0.125527
58	0x3d939e1c	0.07207891
59	0xbd65e37c	-0.05612515
60	0xbdfcd73f	-0.123457424
61	0xbd9fd846	-0.07804923
62	0xbd0ce7f6	-0.034400903
63	0xbd83c423	-0.064338945
64	0x3ba73158	0.005102318
65	0xbd732287	-0.0593591
66	0xbe28c40c	-0.16481036
67	0x3e06185a	0.13095227
68	0xb945a9d7	-0.00018850654
69	0xbde5e7f3	-0.112258814
70	0xbe1615f6	-0.14656815
71	0xbdf32a29	-0.11873276
72	0x3dea11c0	0.11429167
73	0x3e137d1f	0.14403199
74	0x3df5a991	0.11995233
75	0xbd422481	-0.047398094
76	0x3d472d3f	0.048627134
77	0x3e293827	0.16525327
78	0x3d2dba0f	0.042413767
79	0x3d69cfda	0.05708299
80	0x3dff597e	0.12468241
81	0x3d6a66c9	0.05722693
82	0x3c0e16ca	0.0086724255
83	0x3d7e0cdf	0.062023994
84	0xbd92146b	-0.07132801
85	0xbbb06a54	-0.005383769
86	0xbe11842c	-0.14210576
87	0x3e13764b	0.14400594
88	0x3c8702c3	0.01648081
89	0x3d052812	0.032508917
90	0xbe2c1c73	-0.16807728
91	0x3d2d5ae7	0.04232302
92	0xbe02d56f	-0.12776731
93	0x3d19713d	0.037461508
94	0xbd498e25	-0.049207825
95	0xbd0baf7c	-0.0341029
96	0x3dc4bced	0.09606347
97	0x3d0d0f49	0.034438405
98	0x3d90f7a7	0.07078486
99	0x3de0384b	0.10948237
100	0x3c844a2f	0.016148655
101	0xbdd935ee	-0.106059894
102	0x3e0a482d	0.13504095
103	0xbe2fb746	-0.17159757
104	0x3e162615	0.14662965
105	0x3dacd548	0.08439118
106	0xbe1ef17a	-0.15521803
107	0xbbc00cb3	-0.005860889
108	0xbd256780	-0.04038191
109	0xbe16808b	-0.14697473
110	0xbcd8d14d	-0.02646699
111	0xbe0aff8d	-0.13574047
112	0x3d4c5ef8	0.049895257
113	0xbe19daed	-0.1502492
114	0xbd3b102f	-0.04566973
115	0xbe115a98	-0.14194715
116	0xbe0666b5	-0.13125117
117	0xbd450551	-0.048100773
118	0x3e30250e	0.17201635
119	0x3e2f7770	0.17135406
120	0x3d9494fc	0.07254979
121	0x3cf70025	0.030151436
122	0x3c00c82a	0.007860223
123	0xbd3f0b03	-0.04664136
124	0xbe325f3f	-0.17419146
125	0x3e28db41	0.16489889
126	0x3e0b596e	0.13608333
127	0x3df1b234	0.11801568
128	0x3e13102d	0.1436164
129	0x3e1ba3ed	0.15199251
130	0xbd24316b	-0.04008619
131	0x3dcc3809	0.09971625
132	0xbe177f94	-0.14794761
133	0x3e1b5868	0.15170443
134	0x3e145965	0.14487226
135	0xbdf72e60	-0.12069392
136	0x3e0f1eb6	0.13976559
137	0xbdf7b97f	-0.120959274
138	0xbdaf09d1	-0.08546794
139	0xbd5706dc	-0.052496776
140	0xbd355453	-0.04426987
141	0x3e149d12	0.14513043
142	0x3d8729d7	0.06599777
143	0x3d4668ba	0.04843972
144	0xbe13758b	-0.14400308
145	0x3e1efa42	0.15525153
146	0x3d469d9f	0.048490163
147	0xbd9a23d4	-0.07526365
148	0x3e26f43c	0.16304106
149	0x3e008f46	0.12554654
150	0x3d1d056b	0.038335245
151	0xbd6c0ede	-0.057631366
152	0xbc880c6a	-0.016607482
153	0xbdbd033b	-0.09229132
154	0x3d0b3067	0.033981707
155	0xbcd74161	-0.026276292
156	0x3db3af04	0.08773616
157	0xbdbd9e46	-0.09258704
158	0x3e032854	0.12808353
159	0x3ce70770	0.028201789
160	0x3d5a3176	0.053269826
161	0xbc9dd0e5	-0.019264648
162	0xbe14cfb2	-0.14532354
163	0x3e21ad5f	0.15788792
164	0xbd5822f0	-0.052767694
165	0xbe0404fa	-0.12892523
166	0xbce304de	-0.027712282
167	0x3dcecc26	0.10097532
168	0xbdea5906	-0.11442761
169	0x3d6dec9d	0.05808698
170	0x3e23e690	0.16005921
171	0xbcc4a1d5	-0.024002949
172	0x3d7f0f40	0.062270403
173	0x3e2c83e2	0.16847184
174	0xbd8d5c63	-0.06902387
175	0x3e032794	0.12808067
176	0xbd10ddae	-0.03536766
177	0xbccfeda0	-0.025381863
178	0xbdb28452	-0.08716644
179	0x3dd2fe99	0.10302467
180	0xbdf412fc	-0.119176835
181	0x3d3aafdb	0.045577865
182	0x3e1ce37b	0.15321152
183	0xbdb7eb8c	-0.08980474
184	0xbd97ea2d	-0.07417712
185	0x3e0ae0ef	0.13562368
186	0x3d9ccffc	0.07656857
187	0x3e1dd6b2	0.15413931
188	0xbe19ef54	-0.15032703
189	0x3ca33d82	0.01992679
190	0x3dea5ba0	0.11443257
191	0xbd8f518d	-0.069979765

bias f4 [6]
0	0xbe0c1cef	-0.13682912
1	0xbe262b4e	-0.16227457
2	0x3de18388	0.11011416
3	0x3afbcce3	0.0019210841
4	0xbd26edb8	-0.04075405
5	0xbdb87145	-0.090059794

weight f4 [128, 135]
0	0xbc615dd6	-0.013755282
1	0x3ce91378	0.028451666
2	0xbc80f969	-0.015743928
3	0x3c1bdb31	0.0095127085
4	0x3c17c914	0.009264249
5	0x3943a27b	0.00018657178
6	0xbbca792f	-0.006178997
7	0x3d621e96	0.05520495
8	0x3cedf0ab	0.029045423
9	0xbd35138d	-0.0442081
10	0xbd7f3cd5	-0.062313873
11	0xbc1f5397	-0.009724519
12	0xbd3c8c85	-0.046032447
13	0xbc6b7207	-0.014370448
14	0xbc3e2c25	-0.011607205
15	0x3d1c901d	0.038223375
16	0x3d04490f	0.032296237
17	0xbd87c5ff	-0.06629562
18	0x3d6b742d	0.05748384
19	0x3c81e309	0.01585533
20	0x3dbe813a	0.09301992
21	0x3d47f558	0.048817962
22	0xbdae4a90	-0.085103154
23	0xbd8b8ef4	-0.068143755
24	0xbd3f7741	-0.04674459
25	0x3d6b22d1	0.05740625
26	0xbcb7a6ab	-0.02241834
27	0x3c9665a3	0.018359011
28	0xbd3f4018	-0.046691984
29	0x3dcd599d	0.10026858
30	0xbcac6819	-0.021045731
31	0x3da8c2eb	0.08240303
32	0xbc44fe5e	-0.0120235365
33	0xbd50d87f	-0.050987717
34	0x3cc7049f	0.024294196
35	0xbd31efa2	-0.043441422
36	0x3c25f116	0.01012828
37	0xbd213f6d	-0.03936713
38	0xb995a255	-0.0002854044
39	0xbdbbeb9b	-0.091757976
40	0xbced62e4	-0.028977819
41	0x3d13ad2c	0.03605382
42	0xbd158393	-0.036502432
43	0x3da20763	0.07911565
44	0x3da985be	0.082774624
45	0xbbe86e02	-0.007093192
46	0xbd888ccf	-0.06667482
47	0x3d8fb52d	0.070169784
48	0x3c1f7b98	0.009734057
49	0xbd64e9b0	-0.055886924
50	0x3d875df9	0.06609721
51	0x3d148f57	0.036269512
52	0x3d7fa93c	0.062417254
53	0xbd4d2989	-0.05008844
54	0xbd048680	-0.03235483
55	0xbc5ab202	-0.013348104
56	0x3cde35fe	0.027125355
57	0xbd5c251a	-0.05374632
58	0xbd2d22f2	-0.042269655
59	0x3d094e7c	0.033522114
60	0xbcd1ce21	-0.025610985
61	0x3cb79896	0.022411626
62	0x3bea0bc4	0.007142516
63	0x3c2ef64b	0.010678838
64	0x3b1d0fc8	0.0023965705
65	0x3d30ba74	0.043146566
66	0x3cfbd043	0.030738955
67	0xbd8eb51f	-0.0696814
68	0x3d23a693	0.03995378
69	0xbda1c371	-0.078986056
70	0xbd8d4cfa	-0.06899448
71	0x3caf6eb3	0.02141509
72	0xbceda500	-0.029009342
73	0x3d24f042	0.04026819
74	0xbcfbbda1	-0.03073007
75	0xbdae8711	-0.085218556
76	0x3d948c23	0.072532915
77	0xba9d146b	-0.0011984234
78	0x3d165b68	0.036708266
79	0x3c7e9100	0.0155375
80	0xbd8b3959	-0.067980476
81	0xbad83a9a	-0.0016496957
82	0x3bf65914	0.007517943
83	0xbd294c65	-0.04133262
84	0xbd11852e	-0.0355274
85	0x3d47185a	0.048607208
86	0x3b1327f6	0.0022454238
87	0xbd2b9f37	-0.041899886
88	0xbd3a3505	-0.04546072
89	0x3da600b7	0.08105605
90	0xbd0d73a0	-0.034534097
91	0x3cfdfc41	0.031004073
92	0x3d5359f2	0.05159945
93	0xbd8f8264	-0.07007292
94	0xbd88cf19	-0.06680126
95	0x3db19e0f	0.086727254
96	0xbc6e7ad3	-0.014555651
97	0x3d6a6d86	0.057233356
98	0x3d17fe9e	0.037108056
99	0x3c9b02b2	0.018922184
100	0x3d6b1b0c	0.05739884
101	0x3dcd10db	0.100129806
102	0xbd82b514	-0.06382194
103	0x3c9ebceb	0.019377192
104	0x3da5c5e1	0.08094383
105	0x3d79dddf	0.06100261
106	0x3d458a22	0.048227437
107	0xbd906a40	-0.070515156
108	0xbda7804f	-0.0817877
109	0xbd8876ac	-0.0666326
110	0x3cd9fd5d	0.02661007
111	0x3da83bb8	0.082145154
112	0xbd102193	-0.03518827
113	0x3d0c997f	0.034326073
114	0xbd587b9a	-0.05285225
115	0xbdccc108	-0.09997755
116	0xbc83aea7	-0.016074492
117	0x3cf9b6a8	0.030482605
118	0x3d81b241	0.06332827
119	0xbd1af053	-0.037826847
120	0x39988ede	0.00029098144
121	0x3d9df8b3	0.07713451
122	0x3d862bd5	0.06551329
123	0x3d2c2e5a	0.04203639
124	0x3d70e53f	0.058812376
125	0x3d942d8a	0.072352484
126	0x3cb9ec65	0.02269573
127	0xbd935773	-0.07194414
128	0xbd59fce0	-0.053219676
129	0xbd34cdd2	-0.044141598
130	0xbb93065b	-0.0044868416
131	0xbd31a651	-0.043371502
132	0x3c8d58db	0.017254284
133	0x3c8cfdf9	0.017210947
134	0xbc986494	-0.018602647
135	0x3d57c028	0.05267349
136	0x3c2319e3	0.009954902
137	0x3d511cbc	0.051052794
138	0x3d3b7385	0.045764465
139	0xbd3592a0	-0.044329286
140	0x3d96a86a	0.07356341
141	0xbc589263	-0.013218495
142	0x3c5a002e	0.013305707
143	0xbd994ce5	-0.074853696
144	0xbd3705e1	-0.04468334
145	0xbd033ee2	-0.03204239
146	0xbd1f6143	-0.038911115
147	0x3d65a208	0.05606273
148	0xbcbde8cc	-0.023182295
149	0xbd63e7b3	-0.055640887
150	0x3d042c8c	0.032269046
151	0x3d1a5580	0.037679195
152	0x3d8cb22f	0.06869923
153	0xbd3f9382	-0.046771534
154	0x3c7e0171	0.015503273
155	0xbcc2301e	-0.023704585
156	0xbbaaa6e5	-0.0052078837
157	0xbd8d40d0	-0.06897128
158	0xbd3e7289	-0.046495948
159	0xbc48804d	-0.012237621
160	0x3cf135f2	0.029444668
161	0x3d061038	0.03273031
162	0x3d28ad93	0.04118116
163	0x3d8ba9de	0.06819509
164	0x3d9daa29	0.07698471
165	0x3d2f8011	0.042846743
166	0xbc7ba9c1	-0.015360297
167	0xbd8916d4	-0.06693807
168	0x3d83146f	0.06400382
169	0xbbc461f3	-0.005993122
170	0xba176992	-0.0005775924
171	0xbd75782d	-0.05992906
172	0x3ab44b73	0.0013755396
173	0xbd60634e	-0.054782204
174	0x3d9800fc	0.07422063
175	0xbd8d2353	-0.06891503
176	0xbd6edbef	-0.058315214
177	0x3b005dad	0.0019587085
178	0xbd56b5a4	-0.05241932
179	0x3d3bdac1	0.045862917
180	0xbd34d4df	-0.044148322
181	0xbd1444f8	-0.036198586
182	0x3c45bb09	0.012068518
183	0x3d8d99a9	0.06914074
184	0xbd93452a	-0.071909264
185	0x3d1c2e96	0.038130365
186	0x3d5a0c69	0.05323449
187	0x3daa0f7c	0.08303735
188	0xbd5714b8	-0.052509993
189	0x3d286eb1	0.04112119
190	0xbda6c980	-0.08143902
191	0x3d7eedaf	0.06223839
192	0xbd4d993f	-0.050194975
193	0x3d02cd88	0.03193429
194	0xba00db86	-0.0004915524
195	0xbc22f935	-0.009947111
196	0x3c458328	0.012055196
197	0x3cac3aa7	0.021024061
198	0x3d6dd1c4	0.058061376
199	0x3d041656	0.032247864
200	0x3cf1f837	0.029537303
201	0xbda9d4ca	-0.082925394
202	0x3d915689	0.070965834
203	0x3daac466	0.08338241
204	0x3d89d43f	0.06729936
205	0x3d73cde8	0.05952254
206	0xbd394ca8	-0.04523912
207	0xbd257efb	-0.0404043
208	0x3d9d04f2	0.07666959
209	0xbd79d1f2	-0.060991235
210	0x3dae253b	0.08503195
211	0xbd9e2694	-0.07722202
212	0xbd981470	-0.07425773
213	0x3d19ff80	0.03759718
214	0xbd7ccd2d	-0.06171911
215	0xbc4b9f9e	-0.012428192
216	0x3da9b36c	0.08286175
217	0x3d4f4017	0.05059823
218	0x3d85e268	0.06537324
219	0xbd0f158c	-0.034932658
220	0xbdb1f439	-0.0868916
221	0x3db32e5a	0.08749075
222	0xbcb08353	-0.021546995
223	0xbcad113c	-0.021126382
224	0x3ce047a6	0.027377915
225	0xbd30fe52	-0.04321129
226	0x3d9a876e	0.075453624
227	0x3d728532	0.059209056
228	0xbd9910ff	-0.07473945
229	0xbd7ddf79	-0.0619807
230	0xbb0a8720	-0.002113767
231	0x3d054b80	0.032542706
232	0xbbae6620	-0.005322233
233	0xbce39d93	-0.027785098
234	0xbbe777a2	-0.007063822
235	0xbdaf6818	-0.08564776
236	0xbd575050	-0.052566826
237	0xbd58dc0e	-0.052944236
238	0x3d86f8a2	0.06590392
239	0x3d959c71	0.073052295
240	0xbca08128	-0.019592836
241	0x3b9c14f6	0.004763241
242	0x3d510610	0.051031172
243	0x3cfb7609	0.030695932
244	0xbd7bacaa	-0.061443962
245	0x3d0ba174	0.03408952
246	0x3d0dc82d	0.03461473
247	0xbccd8e9c	-0.025092416
248	0xbb60e560	-0.0034316406
249	0x3d99b248	0.075047076
250	0x3db80c93	0.08986773
251	0xbd2db03d	-0.042404402
252	0x3dd133c1	0.102149494
253	0x3d1ef99c	0.038812265
254	0xbd4f4aab	-0.05060832
255	0x3d24587b	0.040123444

bias f4 [128]
0	0xbd85adeb	-0.06527313
1	0xbc93d944	-0.018047936
2	0x3dae75da	0.08518572
3	0x3d81e14e	0.063418016
4	0xbd158f83	-0.036513817
5	0x3c67e6f4	0.014154185
6	0x3d48d1d9	0.04902825
7	0xbd9993e4	-0.07498911
8	0xbcb08680	-0.02154851
9	0x3d9203a2	0.07129599
10	0x3d20b1e8	0.039232165
11	0x3d1505c7	0.036382463
12	0x3d8fe362	0.07025792
13	0x3d1d73d7	0.03844055
14	0xbda580fd	-0.08081243
15	0xbd586eea	-0.05284015
16	0xbd1b8ace	-0.03797417
17	0xbd9443c6	-0.07239489
18	0x3d933b4a	0.07189043
19	0x3b8b4e26	0.0042512594
20	0x3d95a57c	0.07306954
21	0xba90ae22	-0.0011038224
22	0x3cde7c05	0.027158746
23	0xbcaef55f	-0.021357236
24	0x3d9c903a	0.076446965
25	0x3d821ee1	0.06353546
26	0xbcd99933	-0.026562309
27	0x3c0f6aa1	0.00875345
28	0xbc8187fc	-0.015811913
29	0xbd3aa0ff	-0.045563694
30	0xbda5c086	-0.080933616
31	0x3d5f8a9a	0.05457554
32	0x3d4b5ca5	0.0496489
33	0xbd78b01b	-0.060714822
34	0x3d60f8f6	0.054924928
35	0xbd8be91d	-0.06831572
36	0xbd91914e	-0.07107793
37	0x3c889d0c	0.016676448
38	0x3ca503ee	0.020143475
39	0xbd1a0715	-0.03760441
40	0xbc42a95b	-0.011881198
41	0x3c89c5a1	0.01681787
42	0xbd523909	-0.051323924
43	0x3d936f29	0.071989365
44	0xbd4dc2f6	-0.050234757
45	0xbc875963	-0.016522115
46	0xbda9ece4	-0.082971364
47	0xbce2979f	-0.02766019
48	0x3b45f38f	0.0030204987
49	0xbd0e0487	-0.034672286
50	0xbd72dfde	-0.059295528
51	0xbc6c8266	-0.014435386
52	0xbd5bc586	-0.05365517
53	0x3d9bc8a0	0.076066256
54	0x3da9dd3a	0.08294149
55	0xbc26dfbc	-0.010185178
56	0xbd04836e	-0.032351904
57	0x3d4a8caa	0.049450554
58	0xbcc644c9	-0.024202721
59	0x3d910368	0.07080728
60	0x3d3be857	0.045875873
61	0x3d5955f2	0.05306048
62	0x3db507d7	0.08839386
63	0xbc8ccbd1	-0.017187031
64	0xbd9dcabd	-0.07704685
65	0xbcf298ba	-0.029613841
66	0xbda6ac36	-0.081383154
67	0x3d1991a1	0.0374924
68	0xbca884df	-0.02057117
69	0x3d65ffa3	0.056151997
70	0xbd7c2746	-0.06156089
71	0x3d04a325	0.03238215
72	0x3cab872a	0.020938475
73	0x3d8930f3	0.066987894
74	0xbd8b3387	-0.067969374
75	0x3c8cc682	0.0171845
76	0xbd3a1a8f	-0.045435484
77	0xbca157b2	-0.019695137
78	0x3d88ff36	0.066893026
79	0xbd110e54	-0.035414055
80	0x3d591fc2	0.053008802
81	0x3c7b3064	0.015331361
82	0xbb7d6b64	-0.0038668746
83	0x3dade630	0.084911704
84	0x3c81fcf2	0.015867684
85	0xbd36cb20	-0.04462731
86	0x3da3d110	0.0799886
87	0x3d765252	0.0601371
88	0xbcfcb594	-0.030848302
89	0x3d7ee118	0.062226385
90	0xbc6736e4	-0.014112208
91	0x3ce506fc	0.027957432
92	0xbbaf600c	-0.005352026
93	0xbd8e5392	-0.069495335
94	0x3db716ec	0.08939919
95	0x3d8dd3d8	0.069251716
96	0xbdb60ecc	-0.08889541
97	0xbda3c65e	-0.0799682
98	0x3da8ed9d	0.08248446
99	0x3d227233	0.03965969
100	0xbc2fe01e	-0.010734586
101	0xbce6380e	-0.0281029
102	0x3d847142	0.06466915
103	0x3d67b2d3	0.056567024
104	0xbdb16343	-0.08661511
105	0xbd2fe4b3	-0.042942714
106	0xbd224738	-0.0396187
107	0xbdadd140	-0.08487177
108	0xbc824a25	-0.015904495
109	0x3d02deeb	0.031950872
110	0xbc684241	-0.014175952
111	0xbd858d7a	-0.06521125
112	0xbca52426	-0.020158838
113	0xbc887fe7	-0.016662551
114	0xbd628ee4	-0.055312052
115	0x3ca421ae	0.020035591
116	0xbd935203	-0.07193377
117	0x3cec2744	0.028827317
118	0xbca4d54c	-0.02012124
119	0xbce01231	-0.027352424
120	0x3d0f4bce	0.034984402
121	0x3d6e10f6	0.058121644
122	0x3cf78505	0.030214796
123	0x3d9225d4	0.071361214
124	0x3da0a51f	0.07843994
125	0xba8a9daa	-0.0010575552
126	0x3cab736c	0.02092906
127	0x3d94104e	0.07229672

weight f4 [64, 128]
0	0xbd8c2098	-0.06842154
1	0xbc2381a5	-0.00997964
2	0xbd82cec6	-0.06387095
3	0x3ce594d5	0.02802507
4	0x3d4c9c54	0.049953774
5	0x3d8bc681	0.06824971
6	0x39d5a04d	0.0004074596
7	0xbd6d1e49	-0.05789021
8	0xbd84e1ef	-0.06488406
9	0xbd87cf5e	-0.06631349
10	0xbb92eeb9	-0.0044840244
11	0x3caacad0	0.020848662
12	0xbd555584	-0.052083507
13	0x3cd6bbea	0.026212651
14	0x3c428fab	0.011875073
15	0xbd2c1551	-0.042012516
16	0x3ca5d839	0.020244705
17	0xbd7f3f6f	-0.062316354
18	0x3db64344	0.08899549
19	0xbd991599	-0.074748226
20	0x3b7aae46	0.0038250848
21	0x3c2fb301	0.01072383
22	0xbd66833d	-0.056277502
23	0x3d9394f9	0.07206149
24	0x3bbd93bc	0.0057854336
25	0xbd054dfd	-0.03254508
26	0xbbb288d0	-0.005448438
27	0x3d9dad22	0.07699038
28	0x3abc8e92	0.0014385751
29	0xbda282a4	-0.07935074
30	0xbdac0ff2	-0.08401479
31	0x3d9d8e59	0.07693166
32	0x3d8f1f33	0.06988373
33	0xbd9973c5	-0.074927844
34	0x3da0e571	0.078562625
35	0xbd674cf9	-0.05646989
36	0xbd6d940c	-0.058002517
37	0x3b868378	0.0041050278
38	0x3db8798f	0.090075605
39	0x3d27692e	0.04087179
40	0xbdad9072	-0.084748164
41	0xbd2ab98c	-0.041680858
42	0x3d2db964	0.04241313
43	0x3d797e35	0.060911376
44	0x3d27fc3f	0.041012045
45	0xbd1c4382	-0.038150318
46	0xbd181668	-0.037130743
47	0x3cdd1507	0.026987566
48	0xbcb15e37	-0.02165137
49	0x3d429ba0	0.047511697
50	0x3d4bf21a	0.049791433
51	0x3d305874	0.043053105
52	0x3d56fa9a	0.052485086
53	0xbb9ade0c	-0.004726177
54	0x3d9dd7f7	0.07707208
55	0x3d950de6	0.072780415
56	0xbb4e9106	-0.0031519546
57	0xbd77da2d	-0.060510803
58	0xbcab788d	-0.020931507
59	0x39470bde	0.0001898254
60	0xbcfa1d00	-0.030531406
61	0x3caddfbb	0.021224847
62	0x3d074e30	0.03303355
63	0xbcc11de6	-0.023573827
64	0x3c4a14c0	0.012334049
65	0x3cac3297	0.021020217
66	0x3c29a943	0.010355297
67	0xbcb023d4	-0.02150146
68	0x3be61b20	0.0070222765
69	0xbb013919	-0.001971787
70	0xbd887669	-0.0666321
71	0xbd905ee5	-0.0704935
72	0xbd67ee64	-0.05662383
73	0xbd8c875b	-0.068617545
74	0x3b4da62d	0.0031379566
75	0x3c9a6cd0	0.018850714
76	0xbd227add	-0.039667953
77	0xbd9f8616	-0.07789247
78	0xbd9e76ff	-0.077375405
79	0xbd1bfa46	-0.038080476
80	0x3d728cc3	0.059216272
81	0xbd38ae17	-0.0450879
82	0xbcc184d0	-0.0236229
83	0x3d5ed203	0.0543995
84	0x3cff5ad6	0.031171244
85	0x3d03a8dd	0.032143462
86	0x3c888b4e	0.016667988
87	0xbd31d3d7	-0.043414917
88	0x3c04198a	0.00806273
89	0x3d54b277	0.05192801
90	0x3d7a28c9	0.061074052
91	0x3c8b08b2	0.01697192
92	0xbd4c8081	-0.04992724
93	0xbd7f6a71	-0.06235737
94	0xbcb4db2d	-0.022077167
95	0xbd687b67	-0.05675831
96	0x3d523b79	0.05132625
97	0xbcc2797c	-0.023739569
98	0x3da90907	0.08253675
99	0xbd88df4a	-0.06683214
100	0x3d870833	0.06593361
101	0x3dd297a6	0.10282831
102	0xbbcf3d8a	-0.0063244747
103	0x3d47c128	0.048768193
104	0xbd1587f4	-0.036506608
105	0x3d452249	0.0481284
106	0x3d93a643	0.07209446
107	0x3c2cc607	0.01054526
108	0x3caa8426	0.020814966
109	0x3c058164	0.008148525
110	0x3d01d5e1	0.03169811
111	0x3cdefa7e	0.027219053
112	0x3d862a1f	0.06551003
113	0xbd924584	-0.07142165
114	0xbd4f6667	-0.050634768
115	0xbdc4af46	-0.09603743
116	0xbd665dd9	-0.056241844
117	0xbd5f4344	-0.05450751
118	0xbda7fd3a	-0.08202596
119	0x3d841d8d	0.06450949
120	0x3a596442	0.00082928326
121	0xbd8c7777	-0.068587236
122	0x3d666f03	0.056258213
123	0xbd836cf8	-0.064172685
124	0x3d993722	0.07481219
125	0xbd32b3a7	-0.04362836
126	0x3d82c520	0.06385255
127	0x3d4c6e7b	0.04991005
128	0x3d1f41df	0.03888118
129	0x3be7532c	0.0070594754
130	0xbd7ecb08	-0.062205344
131	0xbce560d5	-0.028000275
132	0x3be200f6	0.006897087
133	0xbd0de88f	-0.034645613
134	0x3a4cb88f	0.0007809484
135	0xbb8b71a3	-0.00425549
136	0x3d9cafa7	0.076506905
137	0x3d868cb7	0.06569808
138	0xbbab194d	-0.005221522
139	0x3c368f48	0.011142559
140	0xbd019c28	-0.031643063
141	0x3dce0cf6	0.10061066
142	0xbd9e6f95	-0.07736126
143	0x3d6d5243	0.05793978
144	0x3d5f5d7a	0.054532506
145	0xbceb5f98	-0.028732106
146	0x3dacdd6c	0.0844067
147	0x3d6f6391	0.058444563
148	0xbd92641c	-0.071480006
149	0xbd52d196	-0.051469408
150	0x3d6d78f6	0.057976685
151	0x3c1fc3d7	0.009751282
152	0xbc175b4c	-0.009238075
153	0x3dbabdbb	0.091182195
154	0x3cd3dcee	0.025862183
155	0xbd09ab05	-0.033610363
156	0xbd608df5	-0.05482288
157	0xbd8c21e0	-0.06842399
158	0x3d260cec	0.040539667
159	0xbd98b2c8	-0.07455975
160	0xbc84c09b	-0.016205123
161	0x3d1aeb06	0.037821792
162	0x3cee6de6	0.029105138
163	0x3d7ad695	0.061239798
164	0xbd90a93b	-0.07063528
165	0x3dc8bbfa	0.09801479
166	0x3c8d5b47	0.017255438
167	0x3d28c19c	0.041200265
168	0x3d3024e5	0.043003935
169	0x3da2840d	0.07935343
170	0x3d8a3ccd	0.06749878
171	0x3a0aebee	0.00052994385
172	0xbd874690	-0.066052556
173	0x3d3c5a4e	0.04598456
174	0xbda85b4c	-0.082205385
175	0x3b554d38	0.0032547247
176	0xbb3b5212	-0.0028582853
177	0xbc25fa53	-0.010130483
178	0xbc2dfc94	-0.010619301
179	0xbdd18f0f	-0.102323644
180	0x3d082e00	0.033246994
181	0x3bb180a5	0.005416947
182	0xbc690837	-0.01422315
183	0x3c02eaf4	0.0079905875
184	0xbc46d223	-0.012135061
185	0xbbd123dc	-0.0063824486
186	0x3d918311	0.07105077
187	0xbc19dd18	-0.009391092
188	0xbb3ed26e	-0.0029117125
189	0x3d9e1f39	0.07720799
190	0x3d1ad31c	0.037798986
191	0xbb6a387d	-0.0035739236
192	0xbd8ba2a0	-0.06818128
193	0xbd38ab85	-0.04508545
194	0xbd0de36c	-0.034640715
195	0xbb8ce28b	-0.004299467
196	0xbdabfa65	-0.08397368
197	0x3d0a758d	0.03380351
198	0x3c4cea83	0.012507084
199	0x3cd0f1e4	0.025505967
200	0xbd824088	-0.063599646
201	0xbd929c07	-0.07158666
202	0xbd8aed35	-0.06783525
203	0xbd5e6f51	-0.05430538
204	0xbda20720	-0.07911515
205	0xbc576df6	-0.013148775
206	0xbda50a1b	-0.08058568
207	0x3d837c91	0.064202435
208	0x3d959102	0.07303049
209	0xba9f56c2	-0.0012156593
210	0x3db91c5f	0.090386145
211	0x3d6f2598	0.05838546
212	0x3d990339	0.07471318
213	0xbd88c438	-0.06678051
214	0x3d307887	0.043083694
215	0x3c754768	0.014970638
216	0xb738aad2	-1.1007027e-05
217	0x3c95e82a	0.018299181
218	0x3d29d60e	0.041463904
219	0x3bff02c2	0.007782311
220	0x3d988418	0.0744707
221	0x3d744f9d	0.059646238
222	0x3d77b21c	0.060472593
223	0x3b7eb5c3	0.0038865663
224	0x3b78f448	0.00379874
225	0x3d8461d0	0.06463969
226	0xbda56fc7	-0.080779605
227	0x3cdce92e	0.026966657
228	0xbd46e120	-0.04855454
229	0x3d764c15	0.06013115
230	0x3cd2779d	0.025691802
231	0xbcd3ad76	-0.025839549
232	0x3d2cf1d4	0.042222813
233	0x3dac2b7c	0.084067315
234	0xbd33e0e6	-0.04391565
235	0xbd787f6b	-0.06066839
236	0x3d27b94c	0.040948197
237	0xbb085541	-0.0020802768
238	0xbcf43203	-0.029809004
239	0xbd408f04	-0.04701139
240	0xbcbb5d6d	-0.022871697
241	0xbd8b0d62	-0.06789662
242	0xbd59cabf	-0.05317187
243	0xbbe863e9	-0.0070919883
244	0xbd8eada7	-0.06966715
245	0xbce5f7f0	-0.028072327
246	0x3d74f77d	0.059806336
247	0xbd21c61d	-0.039495576
248	0xbae488ea	-0.0017435823
249	0xbd62fd4e	-0.05541735
250	0xbda0816e	-0.07837187
251	0xbd9b782b	-0.075912796
252	0x3da901ab	0.08252271
253	0x3d7ad58f	0.06123882
254	0x3d99ca1b	0.07509252
255	0x3d4cfef5	0.050047833
