wheel_legged_gym/learning/examples/data/policy_1.pt (torch, 69256 bytes, 8 tensors)

weight f4 [128, 30]
000000 78 fe 0e be a9 1f 60 be 78 6c 9f bf f5 83 2a bf
       -0.1396426 -0.21887077 -1.2454977 -0.666076
000010 91 a9 8d be 57 b5 aa bc 6e 4b e1 bd ee 52 df 3f
       -0.2766843 -0.020838423 -0.11000715 1.7447183
000020 bf 1c 90 3e 44 b4 9d 3e d7 e1 09 bf 27 ca 80 bc
       0.28146932 0.30801594 -0.5386023 -0.015721394
000030 6f d7 f5 be ea 64 d9 3d bb b0 04 3c 27 fb da be
       -0.48015925 0.10614951 0.008098776 -0.4276974
000040 ed 84 e5 3e 36 6d 45 3e 0e 41 16 3e 99 1e 34 3f
       0.44827977 0.19279942 0.14673254 0.7035919
000050 2f e7 85 3e 78 a2 6e 3e 2e 6c 93 bd dd 38 82 3b
       0.26152942 0.23304164 -0.07198368 0.003974064
000060 5a f0 04 3d f5 eb 1d be 2c ff 0c 3c 17 c8 5e 3d
       0.03245578 -0.15422042 0.00860576 0.05439004
000070 af 59 47 be 41 82 f2 3e 17 18 e6 be 5f 13 78 3f
       -0.19467805 0.47365 -0.44940254 0.9690456
000080 fb e9 2f 3c 43 9f 8a 3f 00 da 20 3f e4 3d 3b bd
       0.010736938 1.0829853 0.6283264 -0.04571332
000090 c7 06 f5 bd 01 19 37 3f 4b b2 9c be 4c 84 90 bd
       -0.11964183 0.7152253 -0.30604777 -0.070564836
0000a0 4c f2 c7 3e 50 f1 e3 ba b4 23 a6 3d 88 3a 3b 3f
       0.39052045 -0.0017390642 0.081122786 0.73136187
0000b0 de 05 ed bc 7f d1 da 3e 78 c0 b2 3f a5 46 e2 be
       -0.028933462 0.42737958 1.3964987 -0.44194523
0000c0 62 87 0c bf 51 59 0b bf 10 ea a0 3c 54 e1 c9 3e
       -0.5489408 -0.5443316 0.01964286 0.39429724
0000d0 d9 6d a3 be aa 68 70 3e ba 4c d4 be d7 c5 b7 3d
       -0.31919745 0.23477426 -0.41464788 0.08973282
0000e0 74 3f 8f be 3c a1 5f 3e fe 37 6b 3f 69 af 56 3e
       -0.27978098 0.2183885 0.9188231 0.20965351
0000f0 ee 58 33 3e 75 59 94 3f 97 b1 66 3d b6 3f 80 3f
       0.17514393 1.15898 0.056321707 1.0019443
000100 96 db 96 bf ef 3e 55 3e 65 f6 fe bd aa ae d6 be
       -1.1785762 0.20824789 -0.1244934 -0.41930133
000110 69 fb 83 be 59 45 b8 bd 06 2a a1 bf 29 03 9a bc
       -0.25777748 -0.08997602 -1.259095 -0.018800335
000120 df 31 49 bf 31 3e 9f bf 68 64 10 bc b1 19 47 3f
       -0.7859172 -1.2440854 -0.008813001 0.77773577
000130 5c 3e 22 3f eb 91 40 3e 3a 25 5b 3e b2 ca 9a be
       0.633764 0.18805663 0.2140092 -0.3023277
000140 aa 2b 54 be e6 71 b1 be 68 a1 d6 bd 7f 1e ee bd
       -0.20719782 -0.3465721 -0.104800045 -0.116269104
000150 ee a7 d2 3d d3 de 83 3d bb cf b7 bd 25 df 47 bd
       0.10285936 0.06438985 -0.08975168 -0.04879679
000160 d2 a4 11 bf 48 8f d8 bc 95 a7 f8 be af 08 63 bd
       -0.5689212 -0.02643551 -0.48565355 -0.055428203
000170 c9 15 3e 3f aa 25 c2 be 57 9e 92 be 56 27 b8 bc
       0.7425199 -0.3791936 -0.2863643 -0.022479694
000180 ba 8e ab 3d 79 7d 14 bf 85 1f 0a 3f e7 e0 30 3f
       0.08376832 -0.58003956 0.53954345 0.69093174
000190 ff 29 d5 bc 02 cc 77 bc 42 38 9d 3f 67 95 4b bf
       -0.026021002 -0.015124323 1.2282794 -0.79524845
0001a0 98 d9 ca 3b 38 47 e2 3e 66 b9 2b 3f f2 fa 95 be
       0.00619049 0.4419496 0.6707977 -0.2929302
0001b0 3a 05 f7 be d4 ce 5e bf db 90 a7 3e e3 dc 0c bd
       -0.48246175 -0.87034345 0.32727703 -0.03439034
0001c0 e6 c2 dd bd 08 a8 69 3d 96 ac 46 be 1e 83 09 3d
       -0.108281896 0.057045013 -0.19401774 0.03357231
0001d0 00 19 27 be 9b 27 e4 bc 16 f0 20 3e bb 50 bf 3d
       -0.1631813 -0.027850917 0.15716586 0.0934157
0001e0 b0 6a 80 bf 11 eb 61 bf 4b 01 2a 3f 7b c5 bd bf
       -1.0032558 -0.8824931 0.6640822 -1.4825891
0001f0 2f 73 c6 3d 23 fc 98 3e 75 96 1c bd 36 cb 4c bf
       0.09689938 0.29879865 -0.038229425 -0.79997575
000200 f9 f1 e5 3d a8 5a b6 be 8a ef 9d bf 8a 11 c2 bc
       0.11227793 -0.3561604 -1.2338727 -0.023690004
000210 5e 3c 9a 3f 70 02 c0 3e 59 74 8c bc 93 e0 6b be
       1.2049673 0.3750186 -0.017145323 -0.23034887
000220 d4 b5 0c bf 4c c1 5c 3e 0e d0 3f 3e ee dd c5 3d
       -0.5496495 0.21558112 0.1873171 0.0966147
000230 f1 e3 a5 3d bc 23 53 be 08 8a 3c be da 01 db 3d
       0.08100117 -0.206191 -0.1841203 0.106937125
000240 d8 c9 64 3d 07 3f b6 bd fd 8a 83 3d 54 ef 37 be
       0.055856556 -0.0889874 0.06422994 -0.1796239
000250 3e 39 0a bf 77 cb d9 3e c8 11 0d 3d 48 63 11 bf
       -0.53993595 0.42538044 0.034440786 -0.56792116
000260 79 c1 fe be ed 03 b7 3e b7 0b 27 bf 7f 8a f3 bc
       -0.49756983 0.35745183 -0.6525225 -0.029729126
000270 ae e6 32 3f ee 35 99 be e8 37 80 be e9 9e 19 3f
       0.6988324 -0.29923958 -0.25042653 0.600081
000280 7a bd 0f be 05 88 84 3a bd 99 5b bf 3a ad d9 3e
       -0.14037123 0.0010111338 -0.8578146 0.42514974
000290 3f 19 8c 39 a0 9f ed be 50 28 a9 3c 83 3f 69 be
       0.0002672169 -0.46410847 0.020649105 -0.22778134
0002a0 b6 d5 81 be 37 b8 29 3f 1f 26 ac bd 79 a4 ea be
       -0.2535836 0.66296715 -0.084057085 -0.45828608
0002b0 ae a9 2a be 72 10 9e ba ed 07 ec 3e e1 17 0e bd
       -0.1666629 -0.0012059344 0.46099797 -0.03469074
0002c0 29 2e 1e 3e c7 13 df be 5a 27 88 3d c8 04 8c 3e
       0.15447296 -0.43569776 0.06648131 0.27347398
0002d0 c0 84 26 3f 9a 6d 14 bf 87 ce b8 be 5b 36 ec bf
       0.6504631 -0.5797974 -0.36095068 -1.8454088
0002e0 b5 0f dc 3d 40 4e d9 3d ba 73 a6 bc 05 3b 2f bb
       0.107451834 0.10610628 -0.020318855 -0.002673806
0002f0 39 23 28 be b2 22 63 bf f8 a8 eb be d9 fb ff 3b
       -0.16419686 -0.88724816 -0.4602735 0.007812005
000300 38 9e 85 3d 1d f6 03 bf 1d 09 87 bc bd ac b3 bf
       0.065243185 -0.51547414 -0.016483838 -1.403709
000310 fc 95 5f bf 4e 93 ad be 7a df 5c 3e fb 91 cd 3e
       -0.87338233 -0.33901447 0.21569625 0.40150437
000320 5b 92 23 bc 3f 74 d8 3d 21 5f 31 bd a9 bf e4 3d
       -0.009983624 0.10569047 -0.043303613 0.11169369
000330 f8 28 cc bd 4f 0b ae 3d 6f 83 45 bc e1 e9 13 3e
       -0.09968752 0.08498251 -0.012055262 0.14444686
000340 98 2c b7 ba 75 a3 f0 bd 17 d9 2e be dc 8e 97 bd
       -0.0013975082 -0.11749927 -0.17075 -0.07400295
000350 a7 15 17 3d b1 79 97 bf 75 3a 77 be ff 4a 89 3e
       0.036885884 -1.1834012 -0.24143393 0.2681503
000360 f7 77 55 bb b4 3b cb be b1 fc b7 3e ec 36 53 bf
       -0.0032572725 -0.39693987 0.35934976 -0.8250568
000370 68 0f 50 bd ba 36 01 3c 6d 6f 93 bf 0a 76 b2 be
       -0.050795943 0.007886583 -1.151838 -0.34855682
000380 a4 f5 30 bc 58 4d 5b 3d f3 bf 08 bd 2e f1 a4 3e
       -0.010800753 0.053540558 -0.033386182 0.32215255
000390 c0 64 24 bf cd 3a 33 bf e2 d9 23 bc 2b 75 a2 be
       -0.6421623 -0.700116 -0.010000678 -0.31730017
0003a0 aa f8 77 3e 65 1a 8c 3e 8f 0d a3 be a0 21 3f 3e
       0.24215952 0.27363887 -0.31846282 0.1866517
0003b0 b5 ec 1b 3e 07 98 9f 3c c7 ea 1f be ce d4 8c be
       0.15227015 0.019481672 -0.15616904 -0.27506107
0003c0 8a 54 39 be db 6e 74 bf e4 ef d9 be 2f 96 94 bf
       -0.18098655 -0.9548165 -0.42565835 -1.1608332
0003d0 9b f5 ee 3f 2d f5 16 be 67 9d bb bd 52 ca 05 3f
       1.8668703 -0.14741965 -0.091608815 0.5226184
0003e0 30 ee 39 bf 29 6e dc be d3 61 55 bb 2e a8 af bc
       -0.7262907 -0.43052796 -0.0032559528 -0.021442499
0003f0 30 ca a4 3e 14 97 60 bf 72 a3 0f 3c 78 12 97 3e
       0.32185507 -0.87730527 0.008766996 0.29506278

bias f4 [128]
000000 69 16 22 be 7a 2c aa be bc f7 59 be bd 26 cf be
       -0.15828861 -0.33237058 -0.2128591 -0.40459242
000010 62 d9 7e be 8f 83 54 3d fd 4b eb b9 bf 6f b2 be
       -0.24887612 0.051883277 -0.0004487931 -0.3485088
000020 c9 1e 93 3e 49 a1 d0 be 08 e6 02 bf f6 41 d9 bd
       0.28734425 -0.4074805 -0.5113225 -0.10608284
000030 0c 80 09 be 69 dc 86 be 99 47 8d be 69 cd a0 3d
       -0.13427752 -0.26340035 -0.27593687 0.07851679
000040 88 3c 0a bf ab 3a bf 3e 2f 1c 76 3e 57 02 7c bd
       -0.53998613 0.37349448 0.24034189 -0.06152567
000050 66 8c 22 be 96 c1 21 be 7d 64 98 be b5 89 b3 be
       -0.1587387 -0.15796503 -0.29764166 -0.35066
000060 ed a7 69 be 50 f3 0e 3e 70 81 31 bf 88 70 33 3e
       -0.22817965 0.13960004 -0.6933813 0.17523396
000070 25 7c d1 bd bb c9 5f 3e 01 f7 c7 3e 9e 40 79 be
       -0.10228757 0.21854298 0.39055637 -0.24341056
000080 dd 3e 51 3e f0 9f 41 3e b6 f7 b0 3e 9a 3f b1 be
       0.20434137 0.18908668 0.34563988 -0.34618837
000090 d6 c8 dc be a1 50 cf be ce 60 6a 3d db e2 08 be
       -0.43121976 -0.40491202 0.057221226 -0.13367788
0000a0 ec 19 2e 3d 6a c8 d6 be 12 be 67 be 2b ce 88 be
       0.04250519 -0.4194978 -0.226311 -0.26719794
0000b0 c9 59 51 3d 91 6f 1e bf 40 6a 26 3e 49 ac 49 be
       0.051111016 -0.61888987 0.16251469 -0.19694628
0000c0 a1 c1 1a 3e 63 c9 a0 3e 22 da 14 be 87 c4 7e 3e
       0.15112926 0.31403646 -0.14536336 0.24879657
0000d0 69 8b 15 bc f6 be 85 bd 59 c1 cf bd bd 32 0c 3e
       -0.009127476 -0.065305635 -0.101443 0.1369123
0000e0 9d 74 a8 3e 3c df cc be f7 ef d9 3e b2 a9 b6 3e
       0.3290147 -0.40014064 0.4256589 0.35676342
0000f0 77 a0 1f bf bd 46 dc 3d fd 61 a1 be 94 22 c8 3e
       -0.62354225 0.1075568 -0.31520072 0.3908888
000100 68 b9 cb 3e 41 1b 79 be bc e0 a2 3e 56 94 16 bf
       0.3978989 -0.24326803 0.31812084 -0.5882009
000110 df 01 32 3e 90 2a 93 3d 14 73 bf be 85 b8 0b 3c
       0.17383526 0.071858525 -0.37392485 0.00852788
000120 1c 6e 90 bd 18 b5 d9 be cc 65 7d be d9 9d 1e be
       -0.07052252 -0.42520976 -0.24745864 -0.15489902
000130 95 ef 87 3e 68 51 c8 be 5c 89 90 bd 23 df c0 be
       0.26549974 -0.39124608 -0.07057449 -0.3767024
000140 e3 48 e1 be 3c 40 89 be 5d f7 a4 be bf f8 ac be
       -0.4400092 -0.2680682 -0.32219973 -0.33783528
000150 8a 2a 1f 3e 51 ba 20 3e 5f f2 ad be 45 de af bd
       0.15543571 0.15696074 -0.33973977 -0.085873164
000160 9d b7 0c bf 76 43 36 be 8d f1 9d be 5f 68 71 bd
       -0.5496767 -0.17799172 -0.3084835 -0.058937427
000170 e3 57 34 3e 1d 30 28 bd d6 9a 0f bf 75 c4 24 be
       0.17611651 -0.04106151 -0.56095636 -0.16090567
000180 2f 1a c9 3d eb 8d 00 bf da 3b e5 be 8e fa f2 bd
       0.09819447 -0.5021655 -0.44772226 -0.11864196
000190 57 1a a3 bb 46 17 ba 3e c4 c3 9c 3d 59 2e 01 bf
       -0.004977505 0.3634588 0.07654527 -0.50461346
0001a0 fa 11 98 3d 37 06 5d be b4 c7 c0 bc fd 28 95 bc
       0.07425304 -0.21584402 -0.023532726 -0.018208021
0001b0 5e a6 27 bf 79 02 43 be a8 ff 1d 3e 06 b2 89 bd
       -0.6548823 -0.19043912 0.15429556 -0.067234084
0001c0 2f 89 a3 be 2a b4 11 bf 45 2f c3 3e 8b b9 70 be
       -0.319406 -0.56915534 0.38122 -0.23508279
0001d0 c9 70 99 3d 6b 39 d6 be 2f 49 ad 3d 8a 97 e3 3d
       0.07492215 -0.4184068 0.08461224 0.11112888
0001e0 e0 bb 16 3e bb 5b 8a 3e b7 58 31 3e 25 74 b9 be
       0.14720106 0.2702311 0.17318998 -0.36221424
0001f0 c2 9e 81 be 15 6d e4 be 23 12 fd bd 62 c3 3b 3e
       -0.25316435 -0.44614473 -0.12356975 0.18336251

weight f4 [64, 128]
000000 2e 10 11 be 33 13 99 3c 55 9e bc be e5 96 f2 bd
       -0.14166328 0.018685913 -0.36839548 -0.11845187
000010 01 df a3 3d cd 43 1d 3e f1 8d 43 3e 71 89 cc bd
       0.08001519 0.15357895 0.19097115 -0.09987152
000020 ff b7 9f 3e 15 72 fe 3d 37 47 47 bd 6e ee 4f 3e
       0.31195065 0.12424103 -0.0486519 0.20305797
000030 b0 b8 4d bc cd 71 c6 3d ee fa 81 bd 78 0f 6c 3e
       -0.01255624 0.096896745 -0.06346689 0.23052776
000040 d6 0f ad bd 4b 02 f2 3b 72 d1 1b be b8 d5 32 3e
       -0.08450286 0.0073855272 -0.15216616 0.1746434
000050 37 81 b1 bc c5 cc 0b 3e 16 e1 ac bd 8f 11 96 be
       -0.02166806 0.13652332 -0.08441369 -0.2931027
000060 49 2f 93 3e b0 2a 6b 3e e9 7a 35 be 28 20 97 3d
       0.28747013 0.22965503 -0.17722668 0.0737918
000070 64 f5 53 3e a8 40 b8 bd 1d 23 49 3e 54 d4 3c bb
       0.20699078 -0.08996707 0.19642301 -0.002881308
000080 5d 21 61 3e 63 7b 6a 3e d3 93 c8 3d 65 54 0a 3e
       0.21985383 0.22898631 0.0979382 0.13508756
000090 1f d5 1b 3d 04 cf 40 be 56 c3 56 3e de 24 51 3e
       0.038045045 -0.1882897 0.20972952 0.2042422
0000a0 d5 0e d3 3d cf 34 fa bd 1e ba 50 be c0 53 0f 3d
       0.10305563 -0.12217104 -0.20383498 0.03499198
0000b0 3f 4e 1e 3e 02 74 b6 3d 16 b0 23 3e 8a 36 45 3e
       0.15459536 0.089088455 0.1598514 0.19259086
0000c0 a7 51 f1 3c 95 30 81 3e 63 64 a1 bd 75 0d a7 bc
       0.02945788 0.25232378 -0.07880475 -0.020392159
0000d0 3d 70 2a 3e c4 82 c2 3c 76 4f 94 3e 6a 97 5b 3e
       0.16644378 0.023743995 0.28966874 0.21444479
0000e0 5d 8e f2 3d da 6d b0 3d 31 a4 e0 3e 4f be 9e 3e
       0.1184356 0.086147025 0.43875268 0.3100457
0000f0 af 36 8f be 9c a8 82 3d 16 fd c5 3d 04 6b 10 3e
       -0.27971408 0.06379816 0.09667413 0.14103323
000100 b8 8c 5d 3e 5c f3 a6 bb 47 62 91 3e 2a f0 87 be
       0.21635711 -0.0050949287 0.28395292 -0.26550418
000110 20 3c 08 be 36 2e 1b be c1 2a af bd 4b 34 b2 bc
       -0.13304186 -0.15154347 -0.085530765 -0.02175345
000120 8c c1 a0 3d 68 84 e8 bc d1 38 6f be 34 c2 fc 3e
       0.07849416 -0.028383449 -0.23361517 0.49366915
000130 bb 8d 5d 3e 04 42 c2 bb 44 c3 1f bc 61 93 fa bd
       0.21636097 -0.00592828 -0.009751145 -0.122351415
000140 2e 13 89 3b cb 03 35 3e e3 9c 0e be 3e ab c8 bd
       0.0041831946 0.17677228 -0.13927035 -0.09798287
000150 35 8a d3 3d 88 61 51 3c c8 d1 10 3e af 68 58 bd
       0.10329095 0.012779601 0.14142525 -0.05283421
000160 54 5f fd be e8 83 51 3d d3 cb 97 bc e8 22 a9 3e
       -0.49486792 0.051151186 -0.018529808 0.33034444
000170 fe ff 2a be ee 13 5f 3c 04 34 bd bc 0c bd 11 bb
       -0.16699216 0.013615591 -0.023096092 -0.0022237925
000180 2e ea 7d 3e aa c3 1a be 77 c3 3e be f5 95 1b 3d
       0.24796364 -0.15113702 -0.18629251 0.037984807
000190 79 29 8b bc a9 34 23 3e ed fa b6 bd c9 80 d3 be
       -0.01698755 0.15938057 -0.08934579 -0.41309193
0001a0 a5 d7 cb bd 2a 30 c7 be 58 b7 4e bd 6c 9d 80 be
       -0.0995324 -0.38903934 -0.05046782 -0.25120103
0001b0 78 b2 38 3e 8d 1f 33 bc 14 ac b8 3e 72 b1 db 3d
       0.1803683 -0.010932815 0.36068785 0.107272044
0001c0 d1 5f 57 bd d3 ed e3 bd 8b 5b 0e be f7 79 33 be
       -0.052581612 -0.11129346 -0.13902108 -0.17526995
0001d0 5c 92 88 bc ba 14 4d 3d 48 c4 69 3d 3f 5a 46 3e
       -0.016671352 0.050068595 0.057071954 0.19370364
0001e0 26 a4 0a 3d ec a5 8e 3b 22 ef 2c 3e 64 67 64 be
       0.03384795 0.0043532755 0.16888097 -0.22305065
0001f0 1d b8 50 bd 98 7c 5a be 8a b2 bc bd 77 1a 8b bd
       -0.050956834 -0.21336591 -0.09213741 -0.06792157
000200 e2 d9 8a 3e 71 f4 cb bc fe 6a b6 bd b1 a8 4e 3e
       0.27119356 -0.024896832 -0.08907126 0.20181538
000210 81 39 ff 3d ba e8 1e 3e c2 8e 02 3e 71 6a b8 3e
       0.1246214 0.15518466 0.1274977 0.36018708
000220 44 8f ed 3d fe 91 72 3e 68 cf 52 3e 78 ac d3 3d
       0.115995914 0.23688504 0.20586932 0.1033563
000230 df cc 66 be 6d fb 99 3d 43 c9 0b 3e 36 aa 75 be
       -0.2253909 0.07518659 0.13650994 -0.23990712
000240 37 76 31 bc a0 c5 ba be 03 dd 46 be ea e8 26 be
       -0.010831407 -0.364789 -0.19420247 -0.16299787
000250 d9 cc dc bc 67 8c 5e be f1 8a 8f 3e f6 13 6d be
       -0.026953148 -0.21733247 0.2803569 -0.23152146
000260 cc 03 6c 3e ec 03 c9 be d8 20 e4 3e 98 14 2e bc
       0.23048323 -0.39260805 0.44556308 -0.010625027
000270 b4 c8 b0 bd 5e a8 57 bd 4d 09 0c bf e7 84 72 be
       -0.08632031 -0.0526508 -0.5470169 -0.2368351
000280 91 b5 95 be 20 76 a1 be c4 5a e7 be 3b 95 b6 3c
       -0.29240087 -0.31535435 -0.45186436 0.022287956
000290 63 35 77 3e c1 0a fb bd 0f e9 e5 bd 74 fa a8 be
       0.24141459 -0.122579105 -0.11226093 -0.3300358
0002a0 da 43 91 bd 3a 05 8c bd d6 4c 4a 3e 59 c1 e4 3d
       -0.0709302 -0.068369344 0.19755873 0.11169691
0002b0 74 09 ba 3e a2 12 d9 3e f4 92 c3 3c a1 8f 08 3d
       0.36335337 0.42397028 0.023873784 0.0333401
0002c0 66 c9 df 3c 7f de 23 be 8a aa ad bd ee 1a 33 3e
       0.027317714 -0.16002844 -0.08479793 0.17490742
0002d0 0a d4 81 bd 66 9a ff bd d8 b3 86 be e7 65 98 3e
       -0.06339271 -0.12480621 -0.26309085 0.29765245
0002e0 ed 87 fe be 24 56 f7 bd 0f d9 75 be 97 56 5a be
       -0.49713078 -0.12076977 -0.24008583 -0.21322094
0002f0 53 c0 62 3e 47 02 75 3d 68 9b a7 3e b0 2d 13 be
       0.22143678 0.059816625 0.32735753 -0.14372897
000300 bb c8 a2 3e ed fd 52 bd de ad c1 bd 71 46 ad 3e
       0.3179377 -0.051511694 -0.09456991 0.33842805
000310 57 09 1c bd 75 a8 a1 3e e4 9c 01 3f dd f4 37 be
       -0.038094845 0.31573835 0.5063002 -0.17964502
000320 a8 50 b5 3d d3 d7 65 3e ca 62 b6 be b2 3f 27 3e
       0.088532746 0.22445612 -0.35622245 0.16332892
000330 97 34 57 be e7 dc bd 3e ab 66 a7 3e 67 97 a3 3e
       -0.21016155 0.37082598 0.32695517 0.31951448
000340 1b cd 97 3c 67 42 a0 bd a5 85 e2 3d 2a ab ce 3d
       0.01853042 -0.07825165 0.11060647 0.10091241
000350 52 af 94 be af b3 45 3d 64 59 41 bd fb 28 31 bd
       -0.2904001 0.048267063 -0.04720439 -0.043251973
000360 84 e5 4c 3e c0 1b d9 bd 23 e6 02 bd c8 dc 5a be
       0.20009428 -0.10600996 -0.031957757 -0.21373284
000370 24 43 98 3e 8e 9c 2a 3e 6e f7 72 3e d9 3e 85 bb
       0.29738724 0.16661283 0.237272 -0.00406633
000380 ce a1 91 be 80 81 da 3c 1a 50 85 3d 0c cf c5 3c
       -0.2844376 0.026673079 0.06509419 0.02414658
000390 bd 96 ec 3d d0 f4 db be 14 12 c0 3e f6 1e da 3e
       0.115521885 -0.42960215 0.37513793 0.42601746
0003a0 33 5b 21 be 20 16 bd 3e 84 90 c3 be 85 e6 22 be
       -0.15757446 0.36930943 -0.38196194 -0.15908249
0003b0 93 fe 5c bd 1a f8 da be a8 95 88 be 31 b4 96 be
       -0.05395372 -0.4276741 -0.2667668 -0.2943435
0003c0 18 f3 a3 3d 8b 08 36 3e 29 5b af be 79 88 d6 bb
       0.08005351 0.17776696 -0.34249237 -0.0065470305
0003d0 ec 27 58 bd c0 b6 bb 3e 76 f1 86 3d 2b 74 34 3c
       -0.052772447 0.36662865 0.06589024 0.011014025
0003e0 55 77 7c 3d eb 17 87 be 8f fb 04 3e d7 fc b7 3e
       0.06163724 -0.26385435 0.12986587 0.3593509
0003f0 11 c6 90 3e 0f 34 85 3c 2f 14 43 3b 02 06 73 3c
       0.28276113 0.016260175 0.002976667 0.014832975

bias f4 [64]
000000 b1 9a 2a 3e e3 e9 e3 be 31 0d 61 be 41 74 20 be
       0.16660573 -0.4451438 -0.21977688 -0.15669347
000010 ae ce c3 bd 3e 9a d6 be 79 5b ec bd 7d d6 30 be
       -0.095609054 -0.41914552 -0.115408845 -0.17269321
000020 c6 2b 2d be d6 e5 bb 3d 03 c4 5c be f6 83 3e be
       -0.1691123 0.09174697 -0.21559148 -0.18605027
000030 cc 49 27 bd 27 c5 78 be a3 23 9e bd 77 f3 ef be
       -0.040841863 -0.24293958 -0.07721641 -0.46865436
000040 91 f8 30 3d bd 2a 11 bd b0 1e 1b 3c fc 21 97 bd
       0.0432058 -0.03544115 0.009467766 -0.07379529
000050 4e 87 26 be 7d 17 fd be 82 de e4 be 13 fe 36 be
       -0.16262552 -0.49431983 -0.4470101 -0.17870359
000060 82 e3 d8 bd b4 38 28 3d 4c d4 3e be 93 46 d4 be
       -0.10590269 0.0410697 -0.18635672 -0.41460094
000070 ff 30 3e bd cc 1b 97 bd 56 fc 97 be f8 46 b1 be
       -0.046433445 -0.07378349 -0.29684705 -0.34624457
000080 01 1b 84 3e 68 35 a4 bd e0 d4 34 be 30 de 40 3d
       0.25801852 -0.08017999 -0.1765933 0.047086895
000090 c2 69 32 be 5c 59 d9 bd 88 64 79 be d9 22 9f be
       -0.17423156 -0.10612747 -0.24354756 -0.31081274
0000a0 07 8e b6 bd e6 85 97 be 3a 6b 87 bd 82 15 77 be
       -0.08913808 -0.29594344 -0.06612249 -0.24129298
0000b0 3c f7 1a bd 59 ac 99 be ed 21 8d bd a3 81 14 be
       -0.037833437 -0.30014303 -0.068912365 -0.14502577
0000c0 83 ff 11 be 5b 36 2d 3e ea 6f 01 bf 33 ec 9d be
       -0.14257626 0.16915266 -0.5056139 -0.30844268
0000d0 68 53 49 be c9 aa b9 3d 82 28 a6 bd 55 a4 2c be
       -0.19660723 0.09065778 -0.08113195 -0.16859563
0000e0 2a 8f 6e be e2 f4 e8 be 6b 4e d4 be e9 d7 b9 be
       -0.232968 -0.4549933 -0.41466078 -0.3629754
0000f0 ed c9 13 be 2d 47 b8 be ac 70 65 bd 55 d9 a3 be
       -0.14432497 -0.35991803 -0.056015655 -0.3200175

weight f4 [32, 64]
000000 24 fe 70 bf 23 28 10 3e dc fc d1 3d 5a d6 2f 3f
       -0.9413779 0.14077811 0.10253307 0.6868645
000010 8d 88 08 bd 23 ca f5 3d 4a 0f c2 be a9 56 7c be
       -0.03333335 0.12001445 -0.3790229 -0.24642433
000020 60 c6 2e 3e a4 e2 ac bf e8 c8 3d 3d c2 2e 43 3e
       0.17067862 -1.3506665 0.046334177 0.19060805
000030 21 36 39 bf d8 a9 4a be ec 18 8b bf 68 1c 41 3e
       -0.7234822 -0.19791353 -1.086698 0.18858492
000040 23 35 8d be 45 3d f4 be 4f 69 dc be 7a 04 0e 3e
       -0.27579603 -0.47702995 -0.43049094 0.13868895
000050 96 ad a3 bd 4d 26 9b 3e fe f4 60 bf 90 4d 56 be
       -0.07992093 0.3030266 -0.8787383 -0.20928025
000060 c2 dd 32 3d 18 de 26 3e dc 6a 15 bf 3d 53 ab 3e
       0.043668516 0.1629566 -0.5836618 0.33461943
000070 83 01 20 bf 06 ed a8 3d d2 c7 b1 3e ea 8b a0 be
       -0.62502307 0.08248334 0.34722763 -0.31356746
000080 de 36 ba bf fb c8 b2 3e 6b ad 84 be 84 a0 9e be
       -1.4547994 0.3491896 -0.25913557 -0.3098184
000090 7e ec 9a 3c cf 09 17 bf 07 af 2d 3e da 15 31 be
       0.018911596 -0.5899934 0.16961299 -0.17293492
0000a0 64 0f d4 ba de c1 ca bc 62 ce 1c bf 32 e4 b4 3d
       -0.0016178903 -0.024750646 -0.61252415 0.08832587
0000b0 0c 36 fd bd 96 61 0a be 0e 92 2d 3e e6 da 3c 3f
       -0.12363824 -0.13513789 0.16950247 0.7377151
0000c0 5d d4 94 bd 03 68 d1 be 1a 4b e4 be 8a f5 7c 3e
       -0.072670676 -0.40899667 -0.44588548 0.2470304
0000d0 b7 9e 93 bd fb 6d 5a bc 86 d6 fd bd 57 4e 26 bd
       -0.07208007 -0.013331885 -0.12394433 -0.040602054
0000e0 ca 04 7b be bd ea 49 3b c2 ed 38 3f aa 52 49 3d
       -0.24513546 0.003081008 0.7223779 0.0491511
0000f0 09 83 c7 be 1d 00 87 be b8 98 df bb 0f 9d d3 be
       -0.3896716 -0.26367274 -0.0068236254 -0.41330764
000100 48 5b 5a 3e 1f 4e 0e be 19 27 91 bd 0e a2 d9 bd
       0.21323884 -0.13896988 -0.070875354 -0.106266126
000110 2d ec ad 3d 3c 31 e9 bd b3 92 d0 bd bf 77 2e 3e
       0.084923126 -0.11386344 -0.10184231 0.17037867
000120 1e 02 05 bd 31 a5 6b bd 52 6d 9c 3d 81 7f 8d 3d
       -0.032472722 -0.057530586 0.07638039 0.06909085
000130 64 6c c8 3c c0 36 95 bd 96 fb 90 3d 95 b6 a5 3c
       0.024465747 -0.07285833 0.07079236 0.020228663
000140 dd 10 32 bc f3 2a b1 bd 89 5b 35 3e aa a2 c0 3c
       -0.010868278 -0.0865077 0.17710699 0.023515064
000150 c1 f3 89 bd f1 2d 48 be 12 11 5c 3d f6 9a 98 3c
       -0.067359455 -0.19548775 0.053727217 0.018628579
000160 36 03 a2 bd 5a 2e 5b be ab ca 89 bd fd 19 13 be
       -0.07910769 -0.214044 -0.06728109 -0.14365382
000170 3d 74 4e 3e 88 0b 1f 3d 91 80 7c be 68 63 72 be
       0.20161529 0.038829356 -0.24658419 -0.23670733
000180 5c 56 90 be 61 27 12 bd f5 57 4c 3d 68 15 17 3c
       -0.28190887 -0.035682086 0.04988857 0.009221412
000190 f5 dc d4 bd e7 c1 80 bd b3 fc 07 bd b5 ec ad bd
       -0.10393707 -0.06286984 -0.033199977 -0.08492414
0001a0 15 a6 ed 3d 29 60 41 bd 5f 6f ae 3e 23 d8 8c 3e
       0.11603943 -0.047210846 0.34069344 0.2750865
0001b0 99 cd b8 bd 4e 12 c9 3d fc de c2 bd 3f ba c8 3d
       -0.0902359 0.098179445 -0.09515187 0.098011486
0001c0 cd 56 b6 bd 79 2c e0 bc 76 4a e9 bd 5c 20 1c be
       -0.08903275 -0.027364956 -0.113911554 -0.15246719
0001d0 3f d0 0f 3e 56 70 29 3e cd e4 cf 3d 22 0d 2d bd
       0.14044283 0.16546759 0.10151062 -0.042248853
0001e0 36 76 d2 3d 62 da 7e be 03 a4 2d 3d 6a fd 11 3d
       0.10276453 -0.24887994 0.042392742 0.035642065
0001f0 d8 87 f9 3d 4c 2f 00 3c 09 d0 1d 3e e8 70 2f 3e
       0.12184113 0.007823776 0.1541139 0.17132914
000200 42 f0 8d 3d ef 6f b0 bd 76 a7 bf 3e 01 38 c2 bc
       0.06930591 -0.086151 0.3743245 -0.023708345
000210 96 3a 01 be c1 85 36 be e5 65 53 3e d3 05 38 3e
       -0.12620005 -0.1782446 0.20644338 0.17970972
000220 8a ea ef 3d 47 6b fd 3d 8f a1 16 3e 22 25 78 bd
       0.11714657 0.12373977 0.14710067 -0.060582288
000230 39 f8 3f bd d5 29 9d 3c 60 53 ae bd 51 e1 e6 3c
       -0.046867583 0.019184986 -0.08511996 0.028183611
000240 c2 db 56 be 9e 0d cf bd 4a d4 ce bd a5 dc e0 3d
       -0.20982268 -0.10110019 -0.10099085 0.109795846
000250 29 c9 a6 bc 51 50 ca 3c d7 41 10 3c f5 86 c4 be
       -0.020359593 0.024696501 0.00880476 -0.38384214
000260 97 4b 04 be 88 db 20 bd 75 c3 80 3e 33 be 05 be
       -0.1291946 -0.03927186 0.25149122 -0.13060836
000270 fd 87 3a bd d6 f0 92 ba 2b b6 30 3e 12 80 08 3e
       -0.045539845 -0.0011210691 0.17256992 0.13330105
000280 54 1e ef bd 0f 00 36 bc 09 e3 38 3d f1 a0 d6 bd
       -0.116757065 -0.011108412 0.045138393 -0.10479916
000290 d1 d8 a1 bd 8d 0e ad bd 1c 91 6b be f7 bd 52 3d
       -0.079026826 -0.08450041 -0.23004574 0.051450696
0002a0 4c 42 70 bb 63 35 1a 3c de 41 88 3c 30 f3 50 3e
       -0.003666061 0.009412142 0.01663297 0.20405269
0002b0 13 09 ad bd 2e 07 0a 3e 55 a0 c3 bc 69 b4 6c bd
       -0.084489964 0.13479301 -0.023880163 -0.05778924
0002c0 f8 f5 00 be d3 0f 08 3e 60 e4 e1 3d f4 a8 59 3e
       -0.1259383 0.13287286 0.11029887 0.21255857
0002d0 26 a0 bd bd 38 ac 45 be d8 3b 8c 3e 98 74 3b bb
       -0.092590615 -0.19303977 0.27389407 -0.002860343
0002e0 7a e2 36 3e 38 f3 b6 bc 2e 72 d6 3d 00 9d 18 3e
       0.17859831 -0.022332773 0.10470997 0.14903641
0002f0 1f 77 11 3e 7a 01 f2 3b 4d c1 79 bd 8e f3 8e 3e
       0.14205597 0.00738543 -0.06097536 0.27920192
000300 f0 eb c1 bd 67 26 88 3e 6f 24 c8 3e cf 2d 3b 3e
       -0.0946883 0.265918 0.39090297 0.18279193
000310 85 2e fb bd 23 8e 1b bd 96 ab d7 bd c6 0c c4 be
       -0.12264732 -0.03797735 -0.10530774 -0.38290995
000320 3d 92 fa 3d c5 d9 18 be a1 71 88 3d db 81 22 3d
       0.12234924 -0.14926822 0.06662298 0.03967462
000330 ec 66 19 bd 0d 4b 22 3e 95 c2 e8 3c 2d bf b0 3d
       -0.03745167 0.15848942 0.028413096 0.08630214
000340 36 4a 57 3d b1 f7 8c 3c 2c d0 15 be b5 8d 6b 3e
       0.052561007 0.017207952 -0.14630193 0.23003276
000350 a3 b2 64 3c 02 15 65 3e f9 51 0c bd d0 6b 91 3d
       0.013958606 0.22371295 -0.034257863 0.07100642
000360 33 58 14 3d 28 a6 5a 3e 64 a3 5d 3d aa 37 59 3e
       0.036216926 0.21352446 0.0541109 0.2121264
000370 b8 13 5d bd 78 57 b0 bc b7 17 c7 3e e1 a2 25 3e
       -0.053973883 -0.021526083 0.3888528 0.16175415
000380 35 c9 15 3e dc fb 15 be fd 26 b0 bd 0e 14 61 bd
       0.14627536 -0.14646858 -0.086011864 -0.054950766
000390 30 5b 0f 3e f6 08 16 3c 94 cb 23 3e b0 8f b2 3c
       0.13999629 0.00915741 0.15995628 0.021797031
0003a0 ba b4 25 3e 3d e4 85 bd b5 8d 45 bd d4 f5 b2 be
       0.16182223 -0.065376736 -0.048230845 -0.34953177
0003b0 b8 c2 b8 3b 7f b8 87 bd b7 ff 6e 3d 15 f8 5a bd
       0.0056384467 -0.06626987 0.058349337 -0.053459246
0003c0 d1 ca d6 3d 8f 27 0f bd 78 bc 91 3c 0c 27 08 3d
       0.10487903 -0.034949835 0.017790064 0.033240363
0003d0 43 cf c7 3d 95 57 9e bc bf 92 ad bd 88 ee 72 3e
       0.09756329 -0.019328872 -0.08475255 0.23723805
0003e0 23 2d 3b be 6c e0 4e 3e e0 81 c0 3e 4b 9d 61 bb
       -0.18278937 0.20202798 0.37599087 -0.003442603
0003f0 0d 96 46 be 99 38 a2 3d dc a6 b3 be 63 61 d0 bb
       -0.19393177 0.079209514 -0.3508824 -0.0063592657

bias f4 [32]
000000 69 8a 98 bf 4c 42 1d 3e 1f 0f 91 bd ea c0 77 be
       -1.191724 0.15357322 -0.07082962 -0.24194685
000010 91 93 3c 3e c0 ec 14 bd 3c 0e cd 3d 5c bc 94 bc
       0.18415667 -0.036358595 0.100124806 -0.018156223
000020 28 6e 25 be 43 6a 3d bd 13 77 50 be ed de 0e 3c
       -0.16155303 -0.046243917 -0.20357923 0.008720142
000030 5f 63 c3 3d 27 df 09 bf 4e a9 be bd 1e ca f7 bd
       0.09540438 -0.5385613 -0.09309636 -0.12099098
000040 e3 ad ab 3d d6 9b eb bd 24 56 96 bd 45 28 c4 bd
       0.08382776 -0.11504333 -0.07340649 -0.09577993
000050 34 fc 64 be df b1 e0 bd 1d 42 ad 3d 4d 51 ed bc
       -0.22361833 -0.10971426 0.08459876 -0.028969431
000060 15 a7 fc 3c be 6d d9 bd 38 7b 05 be 7b a4 77 be
       0.03084139 -0.10616635 -0.13035285 -0.24183838
000070 46 be 91 bd 19 10 63 bd e4 12 1d bf ae 66 7b be
       -0.0711637 -0.055435274 -0.6135695 -0.24550888

weight f4 [6, 32]
000000 f8 9d 37 3c 60 90 8d bd fd 0b d7 bc 0a 97 97 3d
       0.011207096 -0.06912303 -0.026250834 0.07401855
000010 82 f1 c5 3b 2a 29 02 bd 59 26 bc bd 66 bf db 3c
       0.006040753 -0.03177754 -0.09187002 0.026824664
000020 0e b2 4f bd aa 32 9b 3d 0a ee 1a bd 79 4e 4e bd
       -0.050706916 0.07578023 -0.037824668 -0.050367806
000030 b3 48 d4 3d 03 f4 df 3d 69 4f 3b 3d 38 97 38 3b
       0.10365429 0.109352134 0.04573003 0.0028166305
000040 7b 07 34 3d b0 32 3d 3d 96 c4 d5 bb ff eb c8 bc
       0.043952446 0.046190917 -0.006523679 -0.024526594
000050 4f 43 38 bd 9b 0c 1e 3c 19 09 53 3d ca b3 c5 bd
       -0.044986065 0.00964656 0.051522348 -0.09653433
000060 1d 74 99 bc 58 7c 0e 3d 76 66 a9 3d 89 a7 4a 3c
       -0.018732125 0.034786552 0.08271496 0.012369045
000070 db cb 3c 3d b3 44 c4 3d d4 4a 10 bc 5b 69 56 bd
       0.04609285 0.09583416 -0.008806903 -0.05234657
000080 6c 77 0c bd 12 f3 ab 3d c2 7f 92 bc 24 8b 59 bd
       -0.034293577 0.08395971 -0.017883185 -0.05311121
000090 26 db ab 3d c1 7b 7e 3c 4d 18 61 bd 7e 42 94 3b
       0.083914086 0.015532435 -0.054954816 0.004524528
0000a0 a0 6e 8f bd 3f bb 23 bc 11 58 52 3d 5f c4 bd 3d
       -0.07003522 -0.009993373 0.051353518 0.092659704
0000b0 71 77 5f 3d bd 5a 6b 3b 69 1b 33 bd 38 87 2b 3c
       0.054557268 0.0035912239 -0.043727312 0.01046925
0000c0 b7 6b b0 3d 4f f9 9e 3d ca 14 10 3c ee 3b b8 3d
       0.08614295 0.077623956 0.008794019 0.08995806
0000d0 9d 51 8a 3c cd 1e ee bd b6 f3 c4 bc 10 bf 4e bd
       0.01688462 -0.116269685 -0.024041992 -0.05047518
0000e0 e9 e0 8e 3d 09 6b 87 bb 54 cb 07 3e ab ef 85 3c
       0.06976492 -0.0041326326 0.13261157 0.016349634
0000f0 22 84 12 3c ad 99 8d bd 8b 1d 2a 3e 70 22 bc 3c
       0.008942636 -0.06914077 0.16612832 0.02296564
000100 97 58 5f bd 13 f0 e9 bd 57 ed 36 be 24 ca ea 3d
       -0.054527845 -0.11422744 -0.17863975 0.114643365
000110 e3 f2 8d be 97 8f 3d be 23 31 c1 3d d4 6f 3a 3e
       -0.2772437 -0.18511806 0.094332 0.18206722
000120 fc 5f 91 3d e6 87 ae 3e a5 22 92 3c 15 27 30 3e
       0.07098386 0.34088057 0.017838785 0.17202409
000130 76 a1 fb 3b 5e 20 21 bc 2a a8 c7 bd de 00 4f bd
       0.0076791598 -0.009834377 -0.097488716 -0.050537936
000140 c8 ff db bc 13 12 0e bb 60 4f ce 3d 5f 3e 4d bc
       -0.026855364 -0.0021678254 0.10073733 -0.012527077
000150 0e 0c 35 bd 50 fa 80 3d e7 8a 69 3e bd d6 96 be
       -0.04420095 0.06297743 0.22806893 -0.29460707
000160 dd b9 1c 3e 53 b0 af 3d ac 19 2c 3c c2 76 b0 bb
       0.15305276 0.08578553 0.0105041675 -0.005385251
000170 f2 d4 4c bc fa d8 72 be 28 86 58 be 83 44 35 3e
       -0.012501942 -0.23715582 -0.21144927 0.17701916
000180 c3 ca 6f 3b 77 f0 74 3d b6 f6 14 3d 49 e7 60 bd
       0.0036589361 0.059799638 0.036368094 -0.05490807
000190 ad 75 26 3c 49 9f 52 3d 28 c9 cc 3d 20 87 0d 3c
       0.010159892 0.051421437 0.09999305 0.008638173
0001a0 46 ac 13 bb 51 81 2f 3d b0 80 3d 3d 1d a4 7f bc
       -0.0022533103 0.042847935 0.046265304 -0.0156030925
0001b0 83 e6 07 3e 7a d7 ac bd e0 b7 82 3d 44 de 93 bd
       0.13271527 -0.084395364 0.063827276 -0.07220128
0001c0 77 e4 56 bc 56 46 32 bd 51 f2 e3 bc 35 6f 00 bd
       -0.013115994 -0.04352411 -0.027825506 -0.031356055
0001d0 53 6e 8a bc 14 28 78 bc 4a 5f 90 bd 9c b6 2e bd
       -0.01689831 -0.015146274 -0.07049425 -0.04265462
0001e0 c5 a4 7d 3c ff c9 22 bd 62 ee 76 bd d5 b2 b0 3b
       0.015481179 -0.03974342 -0.060285933 0.005392412
0001f0 52 b5 3f 3d 98 b4 b3 bd 68 80 8f 3d c4 88 04 bc
       0.04680378 -0.0877468 0.070069134 -0.008089248
000200 d7 78 1f be 12 88 c7 bd 8a 23 7a 3d 9a 95 ba 3d
       -0.1557344 -0.0974275 0.06106905 0.091105655
000210 49 2e e1 3c 7b 63 cb bd 32 2a 09 3d 14 e5 84 bd
       0.02748789 -0.09931084 0.033487506 -0.06489006
000220 66 9f 74 bb 81 8a 61 3c cc b1 27 bd 6e 97 5c 3c
       -0.0037326454 0.013765932 -0.040941045 0.013463838
000230 08 ce 9e 3d 3c ac dd 3c 54 fa 8a bd d4 fd db bc
       0.07754141 0.027059667 -0.067860276 -0.026854433
000240 9c 87 88 bd 99 39 8a bd 73 9a f4 3d 20 a9 89 bc
       -0.066664904 -0.06749267 0.11943521 -0.016804278
000250 b6 77 c9 3c 65 ea 89 bc 99 3a 01 bc 5d 65 c1 bc
       0.024593215 -0.0168354 -0.007887506 -0.023607904
000260 9e 99 ad bd 6c 21 aa bd a9 3b e1 bd 2a ac 87 3d
       -0.08476566 -0.08307156 -0.109977074 0.066246346
000270 fc af 85 3d ae 60 e6 3d 28 ba dd bd 8e 82 96 3c
       0.06527707 0.11248909 -0.10826522 0.0183728
000280 9a b4 9c 3e c8 4d 26 3e 60 63 61 3e 41 b9 3b be
       0.30606538 0.16240609 0.22010565 -0.18332388
000290 07 ab ec bd b4 e6 48 3e c3 df 43 be 35 8c eb 3d
       -0.115560584 0.19619256 -0.19128327 0.11501352
0002a0 aa 97 df bc 53 e1 b6 bd 65 58 32 be d6 ff 27 bd
       -0.027293999 -0.08929696 -0.17416532 -0.04101547
0002b0 c1 38 4e 3d 70 54 ec 3c 0e e5 84 bd b6 dc ac bd
       0.050347093 0.028848857 -0.06489001 -0.08440535
0002c0 14 93 6e 3a 55 5d f9 3c 8d 68 9d 3d 72 d4 16 3d
       0.0009100896 0.030440012 0.07685957 0.036823697
0002d0 a7 ec b5 bd 8f 32 18 3e e3 7d da be 9e 82 91 ba
       -0.088830285 0.14863037 -0.4267417 -0.0011101549
0002e0 7d 16 33 be cb 09 07 bd fc 1b 4b 3d f4 47 a8 bd
       -0.17489047 -0.032968324 0.049587235 -0.08216849
0002f0 84 46 77 3d 70 a3 8c 3e 21 bc 5e 3e 2f e1 35 bd
       0.060369983 0.27468443 0.21751453 -0.044404205

bias f4 [6]
000000 88 d3 4c be d4 eb 56 bc ad 53 f3 3d 9a a9 79 3d
       -0.20002568 -0.013117749 0.11881194 0.06095276
000010 f7 a1 84 be 1c 43 e9 3d
       -0.2590482 0.11389753
